graph(%0 : Float(*, 32, 4, strides=[128, 4, 1], requires_grad=0, device=cuda:0),
      %1 : Int(*, strides=[1], requires_grad=0, device=cuda:0),
      %2 : Int(*, 4, strides=[4, 1], requires_grad=0, device=cuda:0),
      %pts_middle_encoder.conv_input.0.weight : Float(3, 3, 3, 4, 16, strides=[576, 192, 64, 16, 1], requires_grad=1, device=cuda:0),
      %pts_middle_encoder.conv_input.1.weight : Float(16, strides=[1], requires_grad=1, device=cuda:0),
      %pts_middle_encoder.conv_input.1.bias : Float(16, strides=[1], requires_grad=1, device=cuda:0),
      %pts_middle_encoder.conv_input.1.running_mean : Float(16, strides=[1], requires_grad=0, device=cuda:0),
      %pts_middle_encoder.conv_input.1.running_var : Float(16, strides=[1], requires_grad=0, device=cuda:0),
      %pts_middle_encoder.conv_input.1.num_batches_tracked : Long(requires_grad=0, device=cuda:0),
      %pts_middle_encoder.encoder_layers.encoder_layer1.0.conv1.weight : Float(3, 3, 3, 16, 16, strides=[2304, 768, 256, 16, 1], requires_grad=1, device=cuda:0),
      %pts_middle_encoder.encoder_layers.encoder_layer1.0.bn1.weight : Float(16, strides=[1], requires_grad=1, device=cuda:0),
      %pts_middle_encoder.encoder_layers.encoder_layer1.0.bn1.bias : Float(16, strides=[1], requires_grad=1, device=cuda:0),
      %pts_middle_encoder.encoder_layers.encoder_layer1.0.bn1.running_mean : Float(16, strides=[1], requires_grad=0, device=cuda:0),
      %pts_middle_encoder.encoder_layers.encoder_layer1.0.bn1.running_var : Float(16, strides=[1], requires_grad=0, device=cuda:0),
      %pts_middle_encoder.encoder_layers.encoder_layer1.0.bn1.num_batches_tracked : Long(requires_grad=0, device=cuda:0),
      %pts_middle_encoder.encoder_layers.encoder_layer1.0.conv2.weight : Float(3, 3, 3, 16, 16, strides=[2304, 768, 256, 16, 1], requires_grad=1, device=cuda:0),
      %pts_middle_encoder.encoder_layers.encoder_layer1.0.bn2.weight : Float(16, strides=[1], requires_grad=1, device=cuda:0),
      %pts_middle_encoder.encoder_layers.encoder_layer1.0.bn2.bias : Float(16, strides=[1], requires_grad=1, device=cuda:0),
      %pts_middle_encoder.encoder_layers.encoder_layer1.0.bn2.running_mean : Float(16, strides=[1], requires_grad=0, device=cuda:0),
      %pts_middle_encoder.encoder_layers.encoder_layer1.0.bn2.running_var : Float(16, strides=[1], requires_grad=0, device=cuda:0),
      %pts_middle_encoder.encoder_layers.encoder_layer1.0.bn2.num_batches_tracked : Long(requires_grad=0, device=cuda:0),
      %pts_middle_encoder.encoder_layers.encoder_layer1.1.conv1.weight : Float(3, 3, 3, 16, 16, strides=[2304, 768, 256, 16, 1], requires_grad=1, device=cuda:0),
      %pts_middle_encoder.encoder_layers.encoder_layer1.1.bn1.weight : Float(16, strides=[1], requires_grad=1, device=cuda:0),
      %pts_middle_encoder.encoder_layers.encoder_layer1.1.bn1.bias : Float(16, strides=[1], requires_grad=1, device=cuda:0),
      %pts_middle_encoder.encoder_layers.encoder_layer1.1.bn1.running_mean : Float(16, strides=[1], requires_grad=0, device=cuda:0),
      %pts_middle_encoder.encoder_layers.encoder_layer1.1.bn1.running_var : Float(16, strides=[1], requires_grad=0, device=cuda:0),
      %pts_middle_encoder.encoder_layers.encoder_layer1.1.bn1.num_batches_tracked : Long(requires_grad=0, device=cuda:0),
      %pts_middle_encoder.encoder_layers.encoder_layer1.1.conv2.weight : Float(3, 3, 3, 16, 16, strides=[2304, 768, 256, 16, 1], requires_grad=1, device=cuda:0),
      %pts_middle_encoder.encoder_layers.encoder_layer1.1.bn2.weight : Float(16, strides=[1], requires_grad=1, device=cuda:0),
      %pts_middle_encoder.encoder_layers.encoder_layer1.1.bn2.bias : Float(16, strides=[1], requires_grad=1, device=cuda:0),
      %pts_middle_encoder.encoder_layers.encoder_layer1.1.bn2.running_mean : Float(16, strides=[1], requires_grad=0, device=cuda:0),
      %pts_middle_encoder.encoder_layers.encoder_layer1.1.bn2.running_var : Float(16, strides=[1], requires_grad=0, device=cuda:0),
      %pts_middle_encoder.encoder_layers.encoder_layer1.1.bn2.num_batches_tracked : Long(requires_grad=0, device=cuda:0),
      %pts_middle_encoder.encoder_layers.encoder_layer1.2.0.weight : Float(3, 3, 3, 16, 32, strides=[4608, 1536, 512, 32, 1], requires_grad=1, device=cuda:0),
      %pts_middle_encoder.encoder_layers.encoder_layer1.2.1.weight : Float(32, strides=[1], requires_grad=1, device=cuda:0),
      %pts_middle_encoder.encoder_layers.encoder_layer1.2.1.bias : Float(32, strides=[1], requires_grad=1, device=cuda:0),
      %pts_middle_encoder.encoder_layers.encoder_layer1.2.1.running_mean : Float(32, strides=[1], requires_grad=0, device=cuda:0),
      %pts_middle_encoder.encoder_layers.encoder_layer1.2.1.running_var : Float(32, strides=[1], requires_grad=0, device=cuda:0),
      %pts_middle_encoder.encoder_layers.encoder_layer1.2.1.num_batches_tracked : Long(requires_grad=0, device=cuda:0),
      %pts_middle_encoder.encoder_layers.encoder_layer2.0.conv1.weight : Float(3, 3, 3, 32, 32, strides=[9216, 3072, 1024, 32, 1], requires_grad=1, device=cuda:0),
      %pts_middle_encoder.encoder_layers.encoder_layer2.0.bn1.weight : Float(32, strides=[1], requires_grad=1, device=cuda:0),
      %pts_middle_encoder.encoder_layers.encoder_layer2.0.bn1.bias : Float(32, strides=[1], requires_grad=1, device=cuda:0),
      %pts_middle_encoder.encoder_layers.encoder_layer2.0.bn1.running_mean : Float(32, strides=[1], requires_grad=0, device=cuda:0),
      %pts_middle_encoder.encoder_layers.encoder_layer2.0.bn1.running_var : Float(32, strides=[1], requires_grad=0, device=cuda:0),
      %pts_middle_encoder.encoder_layers.encoder_layer2.0.bn1.num_batches_tracked : Long(requires_grad=0, device=cuda:0),
      %pts_middle_encoder.encoder_layers.encoder_layer2.0.conv2.weight : Float(3, 3, 3, 32, 32, strides=[9216, 3072, 1024, 32, 1], requires_grad=1, device=cuda:0),
      %pts_middle_encoder.encoder_layers.encoder_layer2.0.bn2.weight : Float(32, strides=[1], requires_grad=1, device=cuda:0),
      %pts_middle_encoder.encoder_layers.encoder_layer2.0.bn2.bias : Float(32, strides=[1], requires_grad=1, device=cuda:0),
      %pts_middle_encoder.encoder_layers.encoder_layer2.0.bn2.running_mean : Float(32, strides=[1], requires_grad=0, device=cuda:0),
      %pts_middle_encoder.encoder_layers.encoder_layer2.0.bn2.running_var : Float(32, strides=[1], requires_grad=0, device=cuda:0),
      %pts_middle_encoder.encoder_layers.encoder_layer2.0.bn2.num_batches_tracked : Long(requires_grad=0, device=cuda:0),
      %pts_middle_encoder.encoder_layers.encoder_layer2.1.conv1.weight : Float(3, 3, 3, 32, 32, strides=[9216, 3072, 1024, 32, 1], requires_grad=1, device=cuda:0),
      %pts_middle_encoder.encoder_layers.encoder_layer2.1.bn1.weight : Float(32, strides=[1], requires_grad=1, device=cuda:0),
      %pts_middle_encoder.encoder_layers.encoder_layer2.1.bn1.bias : Float(32, strides=[1], requires_grad=1, device=cuda:0),
      %pts_middle_encoder.encoder_layers.encoder_layer2.1.bn1.running_mean : Float(32, strides=[1], requires_grad=0, device=cuda:0),
      %pts_middle_encoder.encoder_layers.encoder_layer2.1.bn1.running_var : Float(32, strides=[1], requires_grad=0, device=cuda:0),
      %pts_middle_encoder.encoder_layers.encoder_layer2.1.bn1.num_batches_tracked : Long(requires_grad=0, device=cuda:0),
      %pts_middle_encoder.encoder_layers.encoder_layer2.1.conv2.weight : Float(3, 3, 3, 32, 32, strides=[9216, 3072, 1024, 32, 1], requires_grad=1, device=cuda:0),
      %pts_middle_encoder.encoder_layers.encoder_layer2.1.bn2.weight : Float(32, strides=[1], requires_grad=1, device=cuda:0),
      %pts_middle_encoder.encoder_layers.encoder_layer2.1.bn2.bias : Float(32, strides=[1], requires_grad=1, device=cuda:0),
      %pts_middle_encoder.encoder_layers.encoder_layer2.1.bn2.running_mean : Float(32, strides=[1], requires_grad=0, device=cuda:0),
      %pts_middle_encoder.encoder_layers.encoder_layer2.1.bn2.running_var : Float(32, strides=[1], requires_grad=0, device=cuda:0),
      %pts_middle_encoder.encoder_layers.encoder_layer2.1.bn2.num_batches_tracked : Long(requires_grad=0, device=cuda:0),
      %pts_middle_encoder.encoder_layers.encoder_layer2.2.0.weight : Float(3, 3, 3, 32, 64, strides=[18432, 6144, 2048, 64, 1], requires_grad=1, device=cuda:0),
      %pts_middle_encoder.encoder_layers.encoder_layer2.2.1.weight : Float(64, strides=[1], requires_grad=1, device=cuda:0),
      %pts_middle_encoder.encoder_layers.encoder_layer2.2.1.bias : Float(64, strides=[1], requires_grad=1, device=cuda:0),
      %pts_middle_encoder.encoder_layers.encoder_layer2.2.1.running_mean : Float(64, strides=[1], requires_grad=0, device=cuda:0),
      %pts_middle_encoder.encoder_layers.encoder_layer2.2.1.running_var : Float(64, strides=[1], requires_grad=0, device=cuda:0),
      %pts_middle_encoder.encoder_layers.encoder_layer2.2.1.num_batches_tracked : Long(requires_grad=0, device=cuda:0),
      %pts_middle_encoder.encoder_layers.encoder_layer3.0.conv1.weight : Float(3, 3, 3, 64, 64, strides=[36864, 12288, 4096, 64, 1], requires_grad=1, device=cuda:0),
      %pts_middle_encoder.encoder_layers.encoder_layer3.0.bn1.weight : Float(64, strides=[1], requires_grad=1, device=cuda:0),
      %pts_middle_encoder.encoder_layers.encoder_layer3.0.bn1.bias : Float(64, strides=[1], requires_grad=1, device=cuda:0),
      %pts_middle_encoder.encoder_layers.encoder_layer3.0.bn1.running_mean : Float(64, strides=[1], requires_grad=0, device=cuda:0),
      %pts_middle_encoder.encoder_layers.encoder_layer3.0.bn1.running_var : Float(64, strides=[1], requires_grad=0, device=cuda:0),
      %pts_middle_encoder.encoder_layers.encoder_layer3.0.bn1.num_batches_tracked : Long(requires_grad=0, device=cuda:0),
      %pts_middle_encoder.encoder_layers.encoder_layer3.0.conv2.weight : Float(3, 3, 3, 64, 64, strides=[36864, 12288, 4096, 64, 1], requires_grad=1, device=cuda:0),
      %pts_middle_encoder.encoder_layers.encoder_layer3.0.bn2.weight : Float(64, strides=[1], requires_grad=1, device=cuda:0),
      %pts_middle_encoder.encoder_layers.encoder_layer3.0.bn2.bias : Float(64, strides=[1], requires_grad=1, device=cuda:0),
      %pts_middle_encoder.encoder_layers.encoder_layer3.0.bn2.running_mean : Float(64, strides=[1], requires_grad=0, device=cuda:0),
      %pts_middle_encoder.encoder_layers.encoder_layer3.0.bn2.running_var : Float(64, strides=[1], requires_grad=0, device=cuda:0),
      %pts_middle_encoder.encoder_layers.encoder_layer3.0.bn2.num_batches_tracked : Long(requires_grad=0, device=cuda:0),
      %pts_middle_encoder.encoder_layers.encoder_layer3.1.conv1.weight : Float(3, 3, 3, 64, 64, strides=[36864, 12288, 4096, 64, 1], requires_grad=1, device=cuda:0),
      %pts_middle_encoder.encoder_layers.encoder_layer3.1.bn1.weight : Float(64, strides=[1], requires_grad=1, device=cuda:0),
      %pts_middle_encoder.encoder_layers.encoder_layer3.1.bn1.bias : Float(64, strides=[1], requires_grad=1, device=cuda:0),
      %pts_middle_encoder.encoder_layers.encoder_layer3.1.bn1.running_mean : Float(64, strides=[1], requires_grad=0, device=cuda:0),
      %pts_middle_encoder.encoder_layers.encoder_layer3.1.bn1.running_var : Float(64, strides=[1], requires_grad=0, device=cuda:0),
      %pts_middle_encoder.encoder_layers.encoder_layer3.1.bn1.num_batches_tracked : Long(requires_grad=0, device=cuda:0),
      %pts_middle_encoder.encoder_layers.encoder_layer3.1.conv2.weight : Float(3, 3, 3, 64, 64, strides=[36864, 12288, 4096, 64, 1], requires_grad=1, device=cuda:0),
      %pts_middle_encoder.encoder_layers.encoder_layer3.1.bn2.weight : Float(64, strides=[1], requires_grad=1, device=cuda:0),
      %pts_middle_encoder.encoder_layers.encoder_layer3.1.bn2.bias : Float(64, strides=[1], requires_grad=1, device=cuda:0),
      %pts_middle_encoder.encoder_layers.encoder_layer3.1.bn2.running_mean : Float(64, strides=[1], requires_grad=0, device=cuda:0),
      %pts_middle_encoder.encoder_layers.encoder_layer3.1.bn2.running_var : Float(64, strides=[1], requires_grad=0, device=cuda:0),
      %pts_middle_encoder.encoder_layers.encoder_layer3.1.bn2.num_batches_tracked : Long(requires_grad=0, device=cuda:0),
      %pts_middle_encoder.encoder_layers.encoder_layer3.2.0.weight : Float(3, 3, 3, 64, 128, strides=[73728, 24576, 8192, 128, 1], requires_grad=1, device=cuda:0),
      %pts_middle_encoder.encoder_layers.encoder_layer3.2.1.weight : Float(128, strides=[1], requires_grad=1, device=cuda:0),
      %pts_middle_encoder.encoder_layers.encoder_layer3.2.1.bias : Float(128, strides=[1], requires_grad=1, device=cuda:0),
      %pts_middle_encoder.encoder_layers.encoder_layer3.2.1.running_mean : Float(128, strides=[1], requires_grad=0, device=cuda:0),
      %pts_middle_encoder.encoder_layers.encoder_layer3.2.1.running_var : Float(128, strides=[1], requires_grad=0, device=cuda:0),
      %pts_middle_encoder.encoder_layers.encoder_layer3.2.1.num_batches_tracked : Long(requires_grad=0, device=cuda:0),
      %pts_middle_encoder.encoder_layers.encoder_layer4.0.conv1.weight : Float(3, 3, 3, 128, 128, strides=[147456, 49152, 16384, 128, 1], requires_grad=1, device=cuda:0),
      %pts_middle_encoder.encoder_layers.encoder_layer4.0.bn1.weight : Float(128, strides=[1], requires_grad=1, device=cuda:0),
      %pts_middle_encoder.encoder_layers.encoder_layer4.0.bn1.bias : Float(128, strides=[1], requires_grad=1, device=cuda:0),
      %pts_middle_encoder.encoder_layers.encoder_layer4.0.bn1.running_mean : Float(128, strides=[1], requires_grad=0, device=cuda:0),
      %pts_middle_encoder.encoder_layers.encoder_layer4.0.bn1.running_var : Float(128, strides=[1], requires_grad=0, device=cuda:0),
      %pts_middle_encoder.encoder_layers.encoder_layer4.0.bn1.num_batches_tracked : Long(requires_grad=0, device=cuda:0),
      %pts_middle_encoder.encoder_layers.encoder_layer4.0.conv2.weight : Float(3, 3, 3, 128, 128, strides=[147456, 49152, 16384, 128, 1], requires_grad=1, device=cuda:0),
      %pts_middle_encoder.encoder_layers.encoder_layer4.0.bn2.weight : Float(128, strides=[1], requires_grad=1, device=cuda:0),
      %pts_middle_encoder.encoder_layers.encoder_layer4.0.bn2.bias : Float(128, strides=[1], requires_grad=1, device=cuda:0),
      %pts_middle_encoder.encoder_layers.encoder_layer4.0.bn2.running_mean : Float(128, strides=[1], requires_grad=0, device=cuda:0),
      %pts_middle_encoder.encoder_layers.encoder_layer4.0.bn2.running_var : Float(128, strides=[1], requires_grad=0, device=cuda:0),
      %pts_middle_encoder.encoder_layers.encoder_layer4.0.bn2.num_batches_tracked : Long(requires_grad=0, device=cuda:0),
      %pts_middle_encoder.encoder_layers.encoder_layer4.1.conv1.weight : Float(3, 3, 3, 128, 128, strides=[147456, 49152, 16384, 128, 1], requires_grad=1, device=cuda:0),
      %pts_middle_encoder.encoder_layers.encoder_layer4.1.bn1.weight : Float(128, strides=[1], requires_grad=1, device=cuda:0),
      %pts_middle_encoder.encoder_layers.encoder_layer4.1.bn1.bias : Float(128, strides=[1], requires_grad=1, device=cuda:0),
      %pts_middle_encoder.encoder_layers.encoder_layer4.1.bn1.running_mean : Float(128, strides=[1], requires_grad=0, device=cuda:0),
      %pts_middle_encoder.encoder_layers.encoder_layer4.1.bn1.running_var : Float(128, strides=[1], requires_grad=0, device=cuda:0),
      %pts_middle_encoder.encoder_layers.encoder_layer4.1.bn1.num_batches_tracked : Long(requires_grad=0, device=cuda:0),
      %pts_middle_encoder.encoder_layers.encoder_layer4.1.conv2.weight : Float(3, 3, 3, 128, 128, strides=[147456, 49152, 16384, 128, 1], requires_grad=1, device=cuda:0),
      %pts_middle_encoder.encoder_layers.encoder_layer4.1.bn2.weight : Float(128, strides=[1], requires_grad=1, device=cuda:0),
      %pts_middle_encoder.encoder_layers.encoder_layer4.1.bn2.bias : Float(128, strides=[1], requires_grad=1, device=cuda:0),
      %pts_middle_encoder.encoder_layers.encoder_layer4.1.bn2.running_mean : Float(128, strides=[1], requires_grad=0, device=cuda:0),
      %pts_middle_encoder.encoder_layers.encoder_layer4.1.bn2.running_var : Float(128, strides=[1], requires_grad=0, device=cuda:0),
      %pts_middle_encoder.encoder_layers.encoder_layer4.1.bn2.num_batches_tracked : Long(requires_grad=0, device=cuda:0),
      %pts_middle_encoder.conv_out.0.weight : Float(3, 1, 1, 128, 128, strides=[16384, 16384, 16384, 128, 1], requires_grad=1, device=cuda:0),
      %pts_middle_encoder.conv_out.1.weight : Float(128, strides=[1], requires_grad=1, device=cuda:0),
      %pts_middle_encoder.conv_out.1.bias : Float(128, strides=[1], requires_grad=1, device=cuda:0),
      %pts_middle_encoder.conv_out.1.running_mean : Float(128, strides=[1], requires_grad=0, device=cuda:0),
      %pts_middle_encoder.conv_out.1.running_var : Float(128, strides=[1], requires_grad=0, device=cuda:0),
      %pts_middle_encoder.conv_out.1.num_batches_tracked : Long(requires_grad=0, device=cuda:0),
      %pts_backbone.blocks.0.0.weight : Float(128, 256, 3, 3, strides=[2304, 9, 3, 1], requires_grad=1, device=cuda:0),
      %pts_backbone.blocks.0.1.weight : Float(128, strides=[1], requires_grad=1, device=cuda:0),
      %pts_backbone.blocks.0.1.bias : Float(128, strides=[1], requires_grad=1, device=cuda:0),
      %pts_backbone.blocks.0.1.running_mean : Float(128, strides=[1], requires_grad=0, device=cuda:0),
      %pts_backbone.blocks.0.1.running_var : Float(128, strides=[1], requires_grad=0, device=cuda:0),
      %pts_backbone.blocks.0.1.num_batches_tracked : Long(requires_grad=0, device=cuda:0),
      %pts_backbone.blocks.0.3.weight : Float(128, 128, 3, 3, strides=[1152, 9, 3, 1], requires_grad=1, device=cuda:0),
      %pts_backbone.blocks.0.4.weight : Float(128, strides=[1], requires_grad=1, device=cuda:0),
      %pts_backbone.blocks.0.4.bias : Float(128, strides=[1], requires_grad=1, device=cuda:0),
      %pts_backbone.blocks.0.4.running_mean : Float(128, strides=[1], requires_grad=0, device=cuda:0),
      %pts_backbone.blocks.0.4.running_var : Float(128, strides=[1], requires_grad=0, device=cuda:0),
      %pts_backbone.blocks.0.4.num_batches_tracked : Long(requires_grad=0, device=cuda:0),
      %pts_backbone.blocks.0.6.weight : Float(128, 128, 3, 3, strides=[1152, 9, 3, 1], requires_grad=1, device=cuda:0),
      %pts_backbone.blocks.0.7.weight : Float(128, strides=[1], requires_grad=1, device=cuda:0),
      %pts_backbone.blocks.0.7.bias : Float(128, strides=[1], requires_grad=1, device=cuda:0),
      %pts_backbone.blocks.0.7.running_mean : Float(128, strides=[1], requires_grad=0, device=cuda:0),
      %pts_backbone.blocks.0.7.running_var : Float(128, strides=[1], requires_grad=0, device=cuda:0),
      %pts_backbone.blocks.0.7.num_batches_tracked : Long(requires_grad=0, device=cuda:0),
      %pts_backbone.blocks.0.9.weight : Float(128, 128, 3, 3, strides=[1152, 9, 3, 1], requires_grad=1, device=cuda:0),
      %pts_backbone.blocks.0.10.weight : Float(128, strides=[1], requires_grad=1, device=cuda:0),
      %pts_backbone.blocks.0.10.bias : Float(128, strides=[1], requires_grad=1, device=cuda:0),
      %pts_backbone.blocks.0.10.running_mean : Float(128, strides=[1], requires_grad=0, device=cuda:0),
      %pts_backbone.blocks.0.10.running_var : Float(128, strides=[1], requires_grad=0, device=cuda:0),
      %pts_backbone.blocks.0.10.num_batches_tracked : Long(requires_grad=0, device=cuda:0),
      %pts_backbone.blocks.0.12.weight : Float(128, 128, 3, 3, strides=[1152, 9, 3, 1], requires_grad=1, device=cuda:0),
      %pts_backbone.blocks.0.13.weight : Float(128, strides=[1], requires_grad=1, device=cuda:0),
      %pts_backbone.blocks.0.13.bias : Float(128, strides=[1], requires_grad=1, device=cuda:0),
      %pts_backbone.blocks.0.13.running_mean : Float(128, strides=[1], requires_grad=0, device=cuda:0),
      %pts_backbone.blocks.0.13.running_var : Float(128, strides=[1], requires_grad=0, device=cuda:0),
      %pts_backbone.blocks.0.13.num_batches_tracked : Long(requires_grad=0, device=cuda:0),
      %pts_backbone.blocks.0.15.weight : Float(128, 128, 3, 3, strides=[1152, 9, 3, 1], requires_grad=1, device=cuda:0),
      %pts_backbone.blocks.0.16.weight : Float(128, strides=[1], requires_grad=1, device=cuda:0),
      %pts_backbone.blocks.0.16.bias : Float(128, strides=[1], requires_grad=1, device=cuda:0),
      %pts_backbone.blocks.0.16.running_mean : Float(128, strides=[1], requires_grad=0, device=cuda:0),
      %pts_backbone.blocks.0.16.running_var : Float(128, strides=[1], requires_grad=0, device=cuda:0),
      %pts_backbone.blocks.0.16.num_batches_tracked : Long(requires_grad=0, device=cuda:0),
      %pts_backbone.blocks.1.0.weight : Float(256, 128, 3, 3, strides=[1152, 9, 3, 1], requires_grad=1, device=cuda:0),
      %pts_backbone.blocks.1.1.weight : Float(256, strides=[1], requires_grad=1, device=cuda:0),
      %pts_backbone.blocks.1.1.bias : Float(256, strides=[1], requires_grad=1, device=cuda:0),
      %pts_backbone.blocks.1.1.running_mean : Float(256, strides=[1], requires_grad=0, device=cuda:0),
      %pts_backbone.blocks.1.1.running_var : Float(256, strides=[1], requires_grad=0, device=cuda:0),
      %pts_backbone.blocks.1.1.num_batches_tracked : Long(requires_grad=0, device=cuda:0),
      %pts_backbone.blocks.1.3.weight : Float(256, 256, 3, 3, strides=[2304, 9, 3, 1], requires_grad=1, device=cuda:0),
      %pts_backbone.blocks.1.4.weight : Float(256, strides=[1], requires_grad=1, device=cuda:0),
      %pts_backbone.blocks.1.4.bias : Float(256, strides=[1], requires_grad=1, device=cuda:0),
      %pts_backbone.blocks.1.4.running_mean : Float(256, strides=[1], requires_grad=0, device=cuda:0),
      %pts_backbone.blocks.1.4.running_var : Float(256, strides=[1], requires_grad=0, device=cuda:0),
      %pts_backbone.blocks.1.4.num_batches_tracked : Long(requires_grad=0, device=cuda:0),
      %pts_backbone.blocks.1.6.weight : Float(256, 256, 3, 3, strides=[2304, 9, 3, 1], requires_grad=1, device=cuda:0),
      %pts_backbone.blocks.1.7.weight : Float(256, strides=[1], requires_grad=1, device=cuda:0),
      %pts_backbone.blocks.1.7.bias : Float(256, strides=[1], requires_grad=1, device=cuda:0),
      %pts_backbone.blocks.1.7.running_mean : Float(256, strides=[1], requires_grad=0, device=cuda:0),
      %pts_backbone.blocks.1.7.running_var : Float(256, strides=[1], requires_grad=0, device=cuda:0),
      %pts_backbone.blocks.1.7.num_batches_tracked : Long(requires_grad=0, device=cuda:0),
      %pts_backbone.blocks.1.9.weight : Float(256, 256, 3, 3, strides=[2304, 9, 3, 1], requires_grad=1, device=cuda:0),
      %pts_backbone.blocks.1.10.weight : Float(256, strides=[1], requires_grad=1, device=cuda:0),
      %pts_backbone.blocks.1.10.bias : Float(256, strides=[1], requires_grad=1, device=cuda:0),
      %pts_backbone.blocks.1.10.running_mean : Float(256, strides=[1], requires_grad=0, device=cuda:0),
      %pts_backbone.blocks.1.10.running_var : Float(256, strides=[1], requires_grad=0, device=cuda:0),
      %pts_backbone.blocks.1.10.num_batches_tracked : Long(requires_grad=0, device=cuda:0),
      %pts_backbone.blocks.1.12.weight : Float(256, 256, 3, 3, strides=[2304, 9, 3, 1], requires_grad=1, device=cuda:0),
      %pts_backbone.blocks.1.13.weight : Float(256, strides=[1], requires_grad=1, device=cuda:0),
      %pts_backbone.blocks.1.13.bias : Float(256, strides=[1], requires_grad=1, device=cuda:0),
      %pts_backbone.blocks.1.13.running_mean : Float(256, strides=[1], requires_grad=0, device=cuda:0),
      %pts_backbone.blocks.1.13.running_var : Float(256, strides=[1], requires_grad=0, device=cuda:0),
      %pts_backbone.blocks.1.13.num_batches_tracked : Long(requires_grad=0, device=cuda:0),
      %pts_backbone.blocks.1.15.weight : Float(256, 256, 3, 3, strides=[2304, 9, 3, 1], requires_grad=1, device=cuda:0),
      %pts_backbone.blocks.1.16.weight : Float(256, strides=[1], requires_grad=1, device=cuda:0),
      %pts_backbone.blocks.1.16.bias : Float(256, strides=[1], requires_grad=1, device=cuda:0),
      %pts_backbone.blocks.1.16.running_mean : Float(256, strides=[1], requires_grad=0, device=cuda:0),
      %pts_backbone.blocks.1.16.running_var : Float(256, strides=[1], requires_grad=0, device=cuda:0),
      %pts_backbone.blocks.1.16.num_batches_tracked : Long(requires_grad=0, device=cuda:0),
      %pts_neck.deblocks.0.0.weight : Float(256, 128, 1, 1, strides=[128, 1, 1, 1], requires_grad=1, device=cuda:0),
      %pts_neck.deblocks.0.1.weight : Float(256, strides=[1], requires_grad=1, device=cuda:0),
      %pts_neck.deblocks.0.1.bias : Float(256, strides=[1], requires_grad=1, device=cuda:0),
      %pts_neck.deblocks.0.1.running_mean : Float(256, strides=[1], requires_grad=0, device=cuda:0),
      %pts_neck.deblocks.0.1.running_var : Float(256, strides=[1], requires_grad=0, device=cuda:0),
      %pts_neck.deblocks.0.1.num_batches_tracked : Long(requires_grad=0, device=cuda:0),
      %pts_neck.deblocks.1.0.weight : Float(256, 256, 2, 2, strides=[1024, 4, 2, 1], requires_grad=1, device=cuda:0),
      %pts_neck.deblocks.1.1.weight : Float(256, strides=[1], requires_grad=1, device=cuda:0),
      %pts_neck.deblocks.1.1.bias : Float(256, strides=[1], requires_grad=1, device=cuda:0),
      %pts_neck.deblocks.1.1.running_mean : Float(256, strides=[1], requires_grad=0, device=cuda:0),
      %pts_neck.deblocks.1.1.running_var : Float(256, strides=[1], requires_grad=0, device=cuda:0),
      %pts_neck.deblocks.1.1.num_batches_tracked : Long(requires_grad=0, device=cuda:0),
      %pts_bbox_head.shared_conv.conv.weight : Float(64, 512, 3, 3, strides=[4608, 9, 3, 1], requires_grad=1, device=cuda:0),
      %pts_bbox_head.shared_conv.bn.weight : Float(64, strides=[1], requires_grad=1, device=cuda:0),
      %pts_bbox_head.shared_conv.bn.bias : Float(64, strides=[1], requires_grad=1, device=cuda:0),
      %pts_bbox_head.shared_conv.bn.running_mean : Float(64, strides=[1], requires_grad=0, device=cuda:0),
      %pts_bbox_head.shared_conv.bn.running_var : Float(64, strides=[1], requires_grad=0, device=cuda:0),
      %pts_bbox_head.shared_conv.bn.num_batches_tracked : Long(requires_grad=0, device=cuda:0),
      %pts_bbox_head.task_heads.0.reg.0.conv.weight : Float(64, 64, 3, 3, strides=[576, 9, 3, 1], requires_grad=1, device=cuda:0),
      %pts_bbox_head.task_heads.0.reg.0.bn.weight : Float(64, strides=[1], requires_grad=1, device=cuda:0),
      %pts_bbox_head.task_heads.0.reg.0.bn.bias : Float(64, strides=[1], requires_grad=1, device=cuda:0),
      %pts_bbox_head.task_heads.0.reg.0.bn.running_mean : Float(64, strides=[1], requires_grad=0, device=cuda:0),
      %pts_bbox_head.task_heads.0.reg.0.bn.running_var : Float(64, strides=[1], requires_grad=0, device=cuda:0),
      %pts_bbox_head.task_heads.0.reg.0.bn.num_batches_tracked : Long(requires_grad=0, device=cuda:0),
      %pts_bbox_head.task_heads.0.reg.1.weight : Float(2, 64, 3, 3, strides=[576, 9, 3, 1], requires_grad=1, device=cuda:0),
      %pts_bbox_head.task_heads.0.reg.1.bias : Float(2, strides=[1], requires_grad=1, device=cuda:0),
      %pts_bbox_head.task_heads.0.height.0.conv.weight : Float(64, 64, 3, 3, strides=[576, 9, 3, 1], requires_grad=1, device=cuda:0),
      %pts_bbox_head.task_heads.0.height.0.bn.weight : Float(64, strides=[1], requires_grad=1, device=cuda:0),
      %pts_bbox_head.task_heads.0.height.0.bn.bias : Float(64, strides=[1], requires_grad=1, device=cuda:0),
      %pts_bbox_head.task_heads.0.height.0.bn.running_mean : Float(64, strides=[1], requires_grad=0, device=cuda:0),
      %pts_bbox_head.task_heads.0.height.0.bn.running_var : Float(64, strides=[1], requires_grad=0, device=cuda:0),
      %pts_bbox_head.task_heads.0.height.0.bn.num_batches_tracked : Long(requires_grad=0, device=cuda:0),
      %pts_bbox_head.task_heads.0.height.1.weight : Float(1, 64, 3, 3, strides=[576, 9, 3, 1], requires_grad=1, device=cuda:0),
      %pts_bbox_head.task_heads.0.height.1.bias : Float(1, strides=[1], requires_grad=1, device=cuda:0),
      %pts_bbox_head.task_heads.0.dim.0.conv.weight : Float(64, 64, 3, 3, strides=[576, 9, 3, 1], requires_grad=1, device=cuda:0),
      %pts_bbox_head.task_heads.0.dim.0.bn.weight : Float(64, strides=[1], requires_grad=1, device=cuda:0),
      %pts_bbox_head.task_heads.0.dim.0.bn.bias : Float(64, strides=[1], requires_grad=1, device=cuda:0),
      %pts_bbox_head.task_heads.0.dim.0.bn.running_mean : Float(64, strides=[1], requires_grad=0, device=cuda:0),
      %pts_bbox_head.task_heads.0.dim.0.bn.running_var : Float(64, strides=[1], requires_grad=0, device=cuda:0),
      %pts_bbox_head.task_heads.0.dim.0.bn.num_batches_tracked : Long(requires_grad=0, device=cuda:0),
      %pts_bbox_head.task_heads.0.dim.1.weight : Float(3, 64, 3, 3, strides=[576, 9, 3, 1], requires_grad=1, device=cuda:0),
      %pts_bbox_head.task_heads.0.dim.1.bias : Float(3, strides=[1], requires_grad=1, device=cuda:0),
      %pts_bbox_head.task_heads.0.rot.0.conv.weight : Float(64, 64, 3, 3, strides=[576, 9, 3, 1], requires_grad=1, device=cuda:0),
      %pts_bbox_head.task_heads.0.rot.0.bn.weight : Float(64, strides=[1], requires_grad=1, device=cuda:0),
      %pts_bbox_head.task_heads.0.rot.0.bn.bias : Float(64, strides=[1], requires_grad=1, device=cuda:0),
      %pts_bbox_head.task_heads.0.rot.0.bn.running_mean : Float(64, strides=[1], requires_grad=0, device=cuda:0),
      %pts_bbox_head.task_heads.0.rot.0.bn.running_var : Float(64, strides=[1], requires_grad=0, device=cuda:0),
      %pts_bbox_head.task_heads.0.rot.0.bn.num_batches_tracked : Long(requires_grad=0, device=cuda:0),
      %pts_bbox_head.task_heads.0.rot.1.weight : Float(2, 64, 3, 3, strides=[576, 9, 3, 1], requires_grad=1, device=cuda:0),
      %pts_bbox_head.task_heads.0.rot.1.bias : Float(2, strides=[1], requires_grad=1, device=cuda:0),
      %pts_bbox_head.task_heads.0.heatmap.0.conv.weight : Float(64, 64, 3, 3, strides=[576, 9, 3, 1], requires_grad=1, device=cuda:0),
      %pts_bbox_head.task_heads.0.heatmap.0.bn.weight : Float(64, strides=[1], requires_grad=1, device=cuda:0),
      %pts_bbox_head.task_heads.0.heatmap.0.bn.bias : Float(64, strides=[1], requires_grad=1, device=cuda:0),
      %pts_bbox_head.task_heads.0.heatmap.0.bn.running_mean : Float(64, strides=[1], requires_grad=0, device=cuda:0),
      %pts_bbox_head.task_heads.0.heatmap.0.bn.running_var : Float(64, strides=[1], requires_grad=0, device=cuda:0),
      %pts_bbox_head.task_heads.0.heatmap.0.bn.num_batches_tracked : Long(requires_grad=0, device=cuda:0),
      %pts_bbox_head.task_heads.0.heatmap.1.weight : Float(1, 64, 3, 3, strides=[576, 9, 3, 1], requires_grad=1, device=cuda:0),
      %pts_bbox_head.task_heads.0.heatmap.1.bias : Float(1, strides=[1], requires_grad=1, device=cuda:0),
      %pts_bbox_head.task_heads.1.reg.0.conv.weight : Float(64, 64, 3, 3, strides=[576, 9, 3, 1], requires_grad=1, device=cuda:0),
      %pts_bbox_head.task_heads.1.reg.0.bn.weight : Float(64, strides=[1], requires_grad=1, device=cuda:0),
      %pts_bbox_head.task_heads.1.reg.0.bn.bias : Float(64, strides=[1], requires_grad=1, device=cuda:0),
      %pts_bbox_head.task_heads.1.reg.0.bn.running_mean : Float(64, strides=[1], requires_grad=0, device=cuda:0),
      %pts_bbox_head.task_heads.1.reg.0.bn.running_var : Float(64, strides=[1], requires_grad=0, device=cuda:0),
      %pts_bbox_head.task_heads.1.reg.0.bn.num_batches_tracked : Long(requires_grad=0, device=cuda:0),
      %pts_bbox_head.task_heads.1.reg.1.weight : Float(2, 64, 3, 3, strides=[576, 9, 3, 1], requires_grad=1, device=cuda:0),
      %pts_bbox_head.task_heads.1.reg.1.bias : Float(2, strides=[1], requires_grad=1, device=cuda:0),
      %pts_bbox_head.task_heads.1.height.0.conv.weight : Float(64, 64, 3, 3, strides=[576, 9, 3, 1], requires_grad=1, device=cuda:0),
      %pts_bbox_head.task_heads.1.height.0.bn.weight : Float(64, strides=[1], requires_grad=1, device=cuda:0),
      %pts_bbox_head.task_heads.1.height.0.bn.bias : Float(64, strides=[1], requires_grad=1, device=cuda:0),
      %pts_bbox_head.task_heads.1.height.0.bn.running_mean : Float(64, strides=[1], requires_grad=0, device=cuda:0),
      %pts_bbox_head.task_heads.1.height.0.bn.running_var : Float(64, strides=[1], requires_grad=0, device=cuda:0),
      %pts_bbox_head.task_heads.1.height.0.bn.num_batches_tracked : Long(requires_grad=0, device=cuda:0),
      %pts_bbox_head.task_heads.1.height.1.weight : Float(1, 64, 3, 3, strides=[576, 9, 3, 1], requires_grad=1, device=cuda:0),
      %pts_bbox_head.task_heads.1.height.1.bias : Float(1, strides=[1], requires_grad=1, device=cuda:0),
      %pts_bbox_head.task_heads.1.dim.0.conv.weight : Float(64, 64, 3, 3, strides=[576, 9, 3, 1], requires_grad=1, device=cuda:0),
      %pts_bbox_head.task_heads.1.dim.0.bn.weight : Float(64, strides=[1], requires_grad=1, device=cuda:0),
      %pts_bbox_head.task_heads.1.dim.0.bn.bias : Float(64, strides=[1], requires_grad=1, device=cuda:0),
      %pts_bbox_head.task_heads.1.dim.0.bn.running_mean : Float(64, strides=[1], requires_grad=0, device=cuda:0),
      %pts_bbox_head.task_heads.1.dim.0.bn.running_var : Float(64, strides=[1], requires_grad=0, device=cuda:0),
      %pts_bbox_head.task_heads.1.dim.0.bn.num_batches_tracked : Long(requires_grad=0, device=cuda:0),
      %pts_bbox_head.task_heads.1.dim.1.weight : Float(3, 64, 3, 3, strides=[576, 9, 3, 1], requires_grad=1, device=cuda:0),
      %pts_bbox_head.task_heads.1.dim.1.bias : Float(3, strides=[1], requires_grad=1, device=cuda:0),
      %pts_bbox_head.task_heads.1.rot.0.conv.weight : Float(64, 64, 3, 3, strides=[576, 9, 3, 1], requires_grad=1, device=cuda:0),
      %pts_bbox_head.task_heads.1.rot.0.bn.weight : Float(64, strides=[1], requires_grad=1, device=cuda:0),
      %pts_bbox_head.task_heads.1.rot.0.bn.bias : Float(64, strides=[1], requires_grad=1, device=cuda:0),
      %pts_bbox_head.task_heads.1.rot.0.bn.running_mean : Float(64, strides=[1], requires_grad=0, device=cuda:0),
      %pts_bbox_head.task_heads.1.rot.0.bn.running_var : Float(64, strides=[1], requires_grad=0, device=cuda:0),
      %pts_bbox_head.task_heads.1.rot.0.bn.num_batches_tracked : Long(requires_grad=0, device=cuda:0),
      %pts_bbox_head.task_heads.1.rot.1.weight : Float(2, 64, 3, 3, strides=[576, 9, 3, 1], requires_grad=1, device=cuda:0),
      %pts_bbox_head.task_heads.1.rot.1.bias : Float(2, strides=[1], requires_grad=1, device=cuda:0),
      %pts_bbox_head.task_heads.1.heatmap.0.conv.weight : Float(64, 64, 3, 3, strides=[576, 9, 3, 1], requires_grad=1, device=cuda:0),
      %pts_bbox_head.task_heads.1.heatmap.0.bn.weight : Float(64, strides=[1], requires_grad=1, device=cuda:0),
      %pts_bbox_head.task_heads.1.heatmap.0.bn.bias : Float(64, strides=[1], requires_grad=1, device=cuda:0),
      %pts_bbox_head.task_heads.1.heatmap.0.bn.running_mean : Float(64, strides=[1], requires_grad=0, device=cuda:0),
      %pts_bbox_head.task_heads.1.heatmap.0.bn.running_var : Float(64, strides=[1], requires_grad=0, device=cuda:0),
      %pts_bbox_head.task_heads.1.heatmap.0.bn.num_batches_tracked : Long(requires_grad=0, device=cuda:0),
      %pts_bbox_head.task_heads.1.heatmap.1.weight : Float(1, 64, 3, 3, strides=[576, 9, 3, 1], requires_grad=1, device=cuda:0),
      %pts_bbox_head.task_heads.1.heatmap.1.bias : Float(1, strides=[1], requires_grad=1, device=cuda:0),
      %pts_bbox_head.task_heads.2.reg.0.conv.weight : Float(64, 64, 3, 3, strides=[576, 9, 3, 1], requires_grad=1, device=cuda:0),
      %pts_bbox_head.task_heads.2.reg.0.bn.weight : Float(64, strides=[1], requires_grad=1, device=cuda:0),
      %pts_bbox_head.task_heads.2.reg.0.bn.bias : Float(64, strides=[1], requires_grad=1, device=cuda:0),
      %pts_bbox_head.task_heads.2.reg.0.bn.running_mean : Float(64, strides=[1], requires_grad=0, device=cuda:0),
      %pts_bbox_head.task_heads.2.reg.0.bn.running_var : Float(64, strides=[1], requires_grad=0, device=cuda:0),
      %pts_bbox_head.task_heads.2.reg.0.bn.num_batches_tracked : Long(requires_grad=0, device=cuda:0),
      %pts_bbox_head.task_heads.2.reg.1.weight : Float(2, 64, 3, 3, strides=[576, 9, 3, 1], requires_grad=1, device=cuda:0),
      %pts_bbox_head.task_heads.2.reg.1.bias : Float(2, strides=[1], requires_grad=1, device=cuda:0),
      %pts_bbox_head.task_heads.2.height.0.conv.weight : Float(64, 64, 3, 3, strides=[576, 9, 3, 1], requires_grad=1, device=cuda:0),
      %pts_bbox_head.task_heads.2.height.0.bn.weight : Float(64, strides=[1], requires_grad=1, device=cuda:0),
      %pts_bbox_head.task_heads.2.height.0.bn.bias : Float(64, strides=[1], requires_grad=1, device=cuda:0),
      %pts_bbox_head.task_heads.2.height.0.bn.running_mean : Float(64, strides=[1], requires_grad=0, device=cuda:0),
      %pts_bbox_head.task_heads.2.height.0.bn.running_var : Float(64, strides=[1], requires_grad=0, device=cuda:0),
      %pts_bbox_head.task_heads.2.height.0.bn.num_batches_tracked : Long(requires_grad=0, device=cuda:0),
      %pts_bbox_head.task_heads.2.height.1.weight : Float(1, 64, 3, 3, strides=[576, 9, 3, 1], requires_grad=1, device=cuda:0),
      %pts_bbox_head.task_heads.2.height.1.bias : Float(1, strides=[1], requires_grad=1, device=cuda:0),
      %pts_bbox_head.task_heads.2.dim.0.conv.weight : Float(64, 64, 3, 3, strides=[576, 9, 3, 1], requires_grad=1, device=cuda:0),
      %pts_bbox_head.task_heads.2.dim.0.bn.weight : Float(64, strides=[1], requires_grad=1, device=cuda:0),
      %pts_bbox_head.task_heads.2.dim.0.bn.bias : Float(64, strides=[1], requires_grad=1, device=cuda:0),
      %pts_bbox_head.task_heads.2.dim.0.bn.running_mean : Float(64, strides=[1], requires_grad=0, device=cuda:0),
      %pts_bbox_head.task_heads.2.dim.0.bn.running_var : Float(64, strides=[1], requires_grad=0, device=cuda:0),
      %pts_bbox_head.task_heads.2.dim.0.bn.num_batches_tracked : Long(requires_grad=0, device=cuda:0),
      %pts_bbox_head.task_heads.2.dim.1.weight : Float(3, 64, 3, 3, strides=[576, 9, 3, 1], requires_grad=1, device=cuda:0),
      %pts_bbox_head.task_heads.2.dim.1.bias : Float(3, strides=[1], requires_grad=1, device=cuda:0),
      %pts_bbox_head.task_heads.2.rot.0.conv.weight : Float(64, 64, 3, 3, strides=[576, 9, 3, 1], requires_grad=1, device=cuda:0),
      %pts_bbox_head.task_heads.2.rot.0.bn.weight : Float(64, strides=[1], requires_grad=1, device=cuda:0),
      %pts_bbox_head.task_heads.2.rot.0.bn.bias : Float(64, strides=[1], requires_grad=1, device=cuda:0),
      %pts_bbox_head.task_heads.2.rot.0.bn.running_mean : Float(64, strides=[1], requires_grad=0, device=cuda:0),
      %pts_bbox_head.task_heads.2.rot.0.bn.running_var : Float(64, strides=[1], requires_grad=0, device=cuda:0),
      %pts_bbox_head.task_heads.2.rot.0.bn.num_batches_tracked : Long(requires_grad=0, device=cuda:0),
      %pts_bbox_head.task_heads.2.rot.1.weight : Float(2, 64, 3, 3, strides=[576, 9, 3, 1], requires_grad=1, device=cuda:0),
      %pts_bbox_head.task_heads.2.rot.1.bias : Float(2, strides=[1], requires_grad=1, device=cuda:0),
      %pts_bbox_head.task_heads.2.heatmap.0.conv.weight : Float(64, 64, 3, 3, strides=[576, 9, 3, 1], requires_grad=1, device=cuda:0),
      %pts_bbox_head.task_heads.2.heatmap.0.bn.weight : Float(64, strides=[1], requires_grad=1, device=cuda:0),
      %pts_bbox_head.task_heads.2.heatmap.0.bn.bias : Float(64, strides=[1], requires_grad=1, device=cuda:0),
      %pts_bbox_head.task_heads.2.heatmap.0.bn.running_mean : Float(64, strides=[1], requires_grad=0, device=cuda:0),
      %pts_bbox_head.task_heads.2.heatmap.0.bn.running_var : Float(64, strides=[1], requires_grad=0, device=cuda:0),
      %pts_bbox_head.task_heads.2.heatmap.0.bn.num_batches_tracked : Long(requires_grad=0, device=cuda:0),
      %pts_bbox_head.task_heads.2.heatmap.1.weight : Float(1, 64, 3, 3, strides=[576, 9, 3, 1], requires_grad=1, device=cuda:0),
      %pts_bbox_head.task_heads.2.heatmap.1.bias : Float(1, strides=[1], requires_grad=1, device=cuda:0),
      %pts_bbox_head.task_heads.3.reg.0.conv.weight : Float(64, 64, 3, 3, strides=[576, 9, 3, 1], requires_grad=1, device=cuda:0),
      %pts_bbox_head.task_heads.3.reg.0.bn.weight : Float(64, strides=[1], requires_grad=1, device=cuda:0),
      %pts_bbox_head.task_heads.3.reg.0.bn.bias : Float(64, strides=[1], requires_grad=1, device=cuda:0),
      %pts_bbox_head.task_heads.3.reg.0.bn.running_mean : Float(64, strides=[1], requires_grad=0, device=cuda:0),
      %pts_bbox_head.task_heads.3.reg.0.bn.running_var : Float(64, strides=[1], requires_grad=0, device=cuda:0),
      %pts_bbox_head.task_heads.3.reg.0.bn.num_batches_tracked : Long(requires_grad=0, device=cuda:0),
      %pts_bbox_head.task_heads.3.reg.1.weight : Float(2, 64, 3, 3, strides=[576, 9, 3, 1], requires_grad=1, device=cuda:0),
      %pts_bbox_head.task_heads.3.reg.1.bias : Float(2, strides=[1], requires_grad=1, device=cuda:0),
      %pts_bbox_head.task_heads.3.height.0.conv.weight : Float(64, 64, 3, 3, strides=[576, 9, 3, 1], requires_grad=1, device=cuda:0),
      %pts_bbox_head.task_heads.3.height.0.bn.weight : Float(64, strides=[1], requires_grad=1, device=cuda:0),
      %pts_bbox_head.task_heads.3.height.0.bn.bias : Float(64, strides=[1], requires_grad=1, device=cuda:0),
      %pts_bbox_head.task_heads.3.height.0.bn.running_mean : Float(64, strides=[1], requires_grad=0, device=cuda:0),
      %pts_bbox_head.task_heads.3.height.0.bn.running_var : Float(64, strides=[1], requires_grad=0, device=cuda:0),
      %pts_bbox_head.task_heads.3.height.0.bn.num_batches_tracked : Long(requires_grad=0, device=cuda:0),
      %pts_bbox_head.task_heads.3.height.1.weight : Float(1, 64, 3, 3, strides=[576, 9, 3, 1], requires_grad=1, device=cuda:0),
      %pts_bbox_head.task_heads.3.height.1.bias : Float(1, strides=[1], requires_grad=1, device=cuda:0),
      %pts_bbox_head.task_heads.3.dim.0.conv.weight : Float(64, 64, 3, 3, strides=[576, 9, 3, 1], requires_grad=1, device=cuda:0),
      %pts_bbox_head.task_heads.3.dim.0.bn.weight : Float(64, strides=[1], requires_grad=1, device=cuda:0),
      %pts_bbox_head.task_heads.3.dim.0.bn.bias : Float(64, strides=[1], requires_grad=1, device=cuda:0),
      %pts_bbox_head.task_heads.3.dim.0.bn.running_mean : Float(64, strides=[1], requires_grad=0, device=cuda:0),
      %pts_bbox_head.task_heads.3.dim.0.bn.running_var : Float(64, strides=[1], requires_grad=0, device=cuda:0),
      %pts_bbox_head.task_heads.3.dim.0.bn.num_batches_tracked : Long(requires_grad=0, device=cuda:0),
      %pts_bbox_head.task_heads.3.dim.1.weight : Float(3, 64, 3, 3, strides=[576, 9, 3, 1], requires_grad=1, device=cuda:0),
      %pts_bbox_head.task_heads.3.dim.1.bias : Float(3, strides=[1], requires_grad=1, device=cuda:0),
      %pts_bbox_head.task_heads.3.rot.0.conv.weight : Float(64, 64, 3, 3, strides=[576, 9, 3, 1], requires_grad=1, device=cuda:0),
      %pts_bbox_head.task_heads.3.rot.0.bn.weight : Float(64, strides=[1], requires_grad=1, device=cuda:0),
      %pts_bbox_head.task_heads.3.rot.0.bn.bias : Float(64, strides=[1], requires_grad=1, device=cuda:0),
      %pts_bbox_head.task_heads.3.rot.0.bn.running_mean : Float(64, strides=[1], requires_grad=0, device=cuda:0),
      %pts_bbox_head.task_heads.3.rot.0.bn.running_var : Float(64, strides=[1], requires_grad=0, device=cuda:0),
      %pts_bbox_head.task_heads.3.rot.0.bn.num_batches_tracked : Long(requires_grad=0, device=cuda:0),
      %pts_bbox_head.task_heads.3.rot.1.weight : Float(2, 64, 3, 3, strides=[576, 9, 3, 1], requires_grad=1, device=cuda:0),
      %pts_bbox_head.task_heads.3.rot.1.bias : Float(2, strides=[1], requires_grad=1, device=cuda:0),
      %pts_bbox_head.task_heads.3.heatmap.0.conv.weight : Float(64, 64, 3, 3, strides=[576, 9, 3, 1], requires_grad=1, device=cuda:0),
      %pts_bbox_head.task_heads.3.heatmap.0.bn.weight : Float(64, strides=[1], requires_grad=1, device=cuda:0),
      %pts_bbox_head.task_heads.3.heatmap.0.bn.bias : Float(64, strides=[1], requires_grad=1, device=cuda:0),
      %pts_bbox_head.task_heads.3.heatmap.0.bn.running_mean : Float(64, strides=[1], requires_grad=0, device=cuda:0),
      %pts_bbox_head.task_heads.3.heatmap.0.bn.running_var : Float(64, strides=[1], requires_grad=0, device=cuda:0),
      %pts_bbox_head.task_heads.3.heatmap.0.bn.num_batches_tracked : Long(requires_grad=0, device=cuda:0),
      %pts_bbox_head.task_heads.3.heatmap.1.weight : Float(1, 64, 3, 3, strides=[576, 9, 3, 1], requires_grad=1, device=cuda:0),
      %pts_bbox_head.task_heads.3.heatmap.1.bias : Float(1, strides=[1], requires_grad=1, device=cuda:0),
      %pts_bbox_head.task_heads.4.reg.0.conv.weight : Float(64, 64, 3, 3, strides=[576, 9, 3, 1], requires_grad=1, device=cuda:0),
      %pts_bbox_head.task_heads.4.reg.0.bn.weight : Float(64, strides=[1], requires_grad=1, device=cuda:0),
      %pts_bbox_head.task_heads.4.reg.0.bn.bias : Float(64, strides=[1], requires_grad=1, device=cuda:0),
      %pts_bbox_head.task_heads.4.reg.0.bn.running_mean : Float(64, strides=[1], requires_grad=0, device=cuda:0),
      %pts_bbox_head.task_heads.4.reg.0.bn.running_var : Float(64, strides=[1], requires_grad=0, device=cuda:0),
      %pts_bbox_head.task_heads.4.reg.0.bn.num_batches_tracked : Long(requires_grad=0, device=cuda:0),
      %pts_bbox_head.task_heads.4.reg.1.weight : Float(2, 64, 3, 3, strides=[576, 9, 3, 1], requires_grad=1, device=cuda:0),
      %pts_bbox_head.task_heads.4.reg.1.bias : Float(2, strides=[1], requires_grad=1, device=cuda:0),
      %pts_bbox_head.task_heads.4.height.0.conv.weight : Float(64, 64, 3, 3, strides=[576, 9, 3, 1], requires_grad=1, device=cuda:0),
      %pts_bbox_head.task_heads.4.height.0.bn.weight : Float(64, strides=[1], requires_grad=1, device=cuda:0),
      %pts_bbox_head.task_heads.4.height.0.bn.bias : Float(64, strides=[1], requires_grad=1, device=cuda:0),
      %pts_bbox_head.task_heads.4.height.0.bn.running_mean : Float(64, strides=[1], requires_grad=0, device=cuda:0),
      %pts_bbox_head.task_heads.4.height.0.bn.running_var : Float(64, strides=[1], requires_grad=0, device=cuda:0),
      %pts_bbox_head.task_heads.4.height.0.bn.num_batches_tracked : Long(requires_grad=0, device=cuda:0),
      %pts_bbox_head.task_heads.4.height.1.weight : Float(1, 64, 3, 3, strides=[576, 9, 3, 1], requires_grad=1, device=cuda:0),
      %pts_bbox_head.task_heads.4.height.1.bias : Float(1, strides=[1], requires_grad=1, device=cuda:0),
      %pts_bbox_head.task_heads.4.dim.0.conv.weight : Float(64, 64, 3, 3, strides=[576, 9, 3, 1], requires_grad=1, device=cuda:0),
      %pts_bbox_head.task_heads.4.dim.0.bn.weight : Float(64, strides=[1], requires_grad=1, device=cuda:0),
      %pts_bbox_head.task_heads.4.dim.0.bn.bias : Float(64, strides=[1], requires_grad=1, device=cuda:0),
      %pts_bbox_head.task_heads.4.dim.0.bn.running_mean : Float(64, strides=[1], requires_grad=0, device=cuda:0),
      %pts_bbox_head.task_heads.4.dim.0.bn.running_var : Float(64, strides=[1], requires_grad=0, device=cuda:0),
      %pts_bbox_head.task_heads.4.dim.0.bn.num_batches_tracked : Long(requires_grad=0, device=cuda:0),
      %pts_bbox_head.task_heads.4.dim.1.weight : Float(3, 64, 3, 3, strides=[576, 9, 3, 1], requires_grad=1, device=cuda:0),
      %pts_bbox_head.task_heads.4.dim.1.bias : Float(3, strides=[1], requires_grad=1, device=cuda:0),
      %pts_bbox_head.task_heads.4.rot.0.conv.weight : Float(64, 64, 3, 3, strides=[576, 9, 3, 1], requires_grad=1, device=cuda:0),
      %pts_bbox_head.task_heads.4.rot.0.bn.weight : Float(64, strides=[1], requires_grad=1, device=cuda:0),
      %pts_bbox_head.task_heads.4.rot.0.bn.bias : Float(64, strides=[1], requires_grad=1, device=cuda:0),
      %pts_bbox_head.task_heads.4.rot.0.bn.running_mean : Float(64, strides=[1], requires_grad=0, device=cuda:0),
      %pts_bbox_head.task_heads.4.rot.0.bn.running_var : Float(64, strides=[1], requires_grad=0, device=cuda:0),
      %pts_bbox_head.task_heads.4.rot.0.bn.num_batches_tracked : Long(requires_grad=0, device=cuda:0),
      %pts_bbox_head.task_heads.4.rot.1.weight : Float(2, 64, 3, 3, strides=[576, 9, 3, 1], requires_grad=1, device=cuda:0),
      %pts_bbox_head.task_heads.4.rot.1.bias : Float(2, strides=[1], requires_grad=1, device=cuda:0),
      %pts_bbox_head.task_heads.4.heatmap.0.conv.weight : Float(64, 64, 3, 3, strides=[576, 9, 3, 1], requires_grad=1, device=cuda:0),
      %pts_bbox_head.task_heads.4.heatmap.0.bn.weight : Float(64, strides=[1], requires_grad=1, device=cuda:0),
      %pts_bbox_head.task_heads.4.heatmap.0.bn.bias : Float(64, strides=[1], requires_grad=1, device=cuda:0),
      %pts_bbox_head.task_heads.4.heatmap.0.bn.running_mean : Float(64, strides=[1], requires_grad=0, device=cuda:0),
      %pts_bbox_head.task_heads.4.heatmap.0.bn.running_var : Float(64, strides=[1], requires_grad=0, device=cuda:0),
      %pts_bbox_head.task_heads.4.heatmap.0.bn.num_batches_tracked : Long(requires_grad=0, device=cuda:0),
      %pts_bbox_head.task_heads.4.heatmap.1.weight : Float(1, 64, 3, 3, strides=[576, 9, 3, 1], requires_grad=1, device=cuda:0),
      %pts_bbox_head.task_heads.4.heatmap.1.bias : Float(1, strides=[1], requires_grad=1, device=cuda:0)):
  %54310 : Long(device=cpu) = prim::Constant[value={0}](), scope: mmdet3d.models.detectors.centerpoint.CenterPoint::/mmdet3d.models.voxel_encoders.voxel_encoder.HardSimpleVFE::pts_voxel_encoder
  %54311 : Long(device=cpu) = prim::Constant[value={9223372036854775807}](), scope: mmdet3d.models.detectors.centerpoint.CenterPoint::/mmdet3d.models.voxel_encoders.voxel_encoder.HardSimpleVFE::pts_voxel_encoder
  %54312 : Long(device=cpu) = prim::Constant[value={1}](), scope: mmdet3d.models.detectors.centerpoint.CenterPoint::/mmdet3d.models.voxel_encoders.voxel_encoder.HardSimpleVFE::pts_voxel_encoder
  %42119 : Float(21179, 32, 4, strides=[128, 4, 1], requires_grad=0, device=cuda:0) = aten::slice(%0, %54310, %54310, %54311, %54312), scope: mmdet3d.models.detectors.centerpoint.CenterPoint::/mmdet3d.models.voxel_encoders.voxel_encoder.HardSimpleVFE::pts_voxel_encoder # /home/jing/Workspace/pointcloud/mmdet3d/models/voxel_encoders/voxel_encoder.py:43:0
  %42124 : Float(21179, 32, 4, strides=[128, 4, 1], requires_grad=0, device=cuda:0) = aten::slice(%42119, %54312, %54310, %54311, %54312), scope: mmdet3d.models.detectors.centerpoint.CenterPoint::/mmdet3d.models.voxel_encoders.voxel_encoder.HardSimpleVFE::pts_voxel_encoder # /home/jing/Workspace/pointcloud/mmdet3d/models/voxel_encoders/voxel_encoder.py:43:0
  %54313 : Long(device=cpu) = prim::Constant[value={2}](), scope: mmdet3d.models.detectors.centerpoint.CenterPoint::/mmdet3d.models.voxel_encoders.voxel_encoder.HardSimpleVFE::pts_voxel_encoder
  %54314 : Long(device=cpu) = prim::Constant[value={4}](), scope: mmdet3d.models.detectors.centerpoint.CenterPoint::/mmdet3d.models.voxel_encoders.voxel_encoder.HardSimpleVFE::pts_voxel_encoder
  %42129 : Float(21179, 32, 4, strides=[128, 4, 1], requires_grad=0, device=cuda:0) = aten::slice(%42124, %54313, %54310, %54314, %54312), scope: mmdet3d.models.detectors.centerpoint.CenterPoint::/mmdet3d.models.voxel_encoders.voxel_encoder.HardSimpleVFE::pts_voxel_encoder # /home/jing/Workspace/pointcloud/mmdet3d/models/voxel_encoders/voxel_encoder.py:43:0
  %53592 : int[] = prim::Constant[value=[1]]()
  %54315 : Bool(device=cpu) = prim::Constant[value={0}](), scope: mmdet3d.models.detectors.centerpoint.CenterPoint::/mmdet3d.models.voxel_encoders.voxel_encoder.HardSimpleVFE::pts_voxel_encoder
  %42133 : NoneType = prim::Constant(), scope: mmdet3d.models.detectors.centerpoint.CenterPoint::/mmdet3d.models.voxel_encoders.voxel_encoder.HardSimpleVFE::pts_voxel_encoder
  %42134 : Float(21179, 4, strides=[4, 1], requires_grad=0, device=cuda:0) = aten::sum(%42129, %53592, %54315, %42133), scope: mmdet3d.models.detectors.centerpoint.CenterPoint::/mmdet3d.models.voxel_encoders.voxel_encoder.HardSimpleVFE::pts_voxel_encoder # /home/jing/Workspace/pointcloud/mmdet3d/models/voxel_encoders/voxel_encoder.py:43:0
  %42135 : Float(21179, strides=[1], requires_grad=0, device=cuda:0) = aten::type_as(%1, %0), scope: mmdet3d.models.detectors.centerpoint.CenterPoint::/mmdet3d.models.voxel_encoders.voxel_encoder.HardSimpleVFE::pts_voxel_encoder # /home/jing/Workspace/pointcloud/mmdet3d/models/voxel_encoders/voxel_encoder.py:44:0
  %53593 : int[] = prim::Constant[value=[-1, 1]]()
  %42139 : Float(21179, 1, strides=[1, 1], requires_grad=0, device=cuda:0) = aten::view(%42135, %53593), scope: mmdet3d.models.detectors.centerpoint.CenterPoint::/mmdet3d.models.voxel_encoders.voxel_encoder.HardSimpleVFE::pts_voxel_encoder # /home/jing/Workspace/pointcloud/mmdet3d/models/voxel_encoders/voxel_encoder.py:44:0
  %42140 : Float(21179, 4, strides=[4, 1], requires_grad=0, device=cuda:0) = aten::div(%42134, %42139), scope: mmdet3d.models.detectors.centerpoint.CenterPoint::/mmdet3d.models.voxel_encoders.voxel_encoder.HardSimpleVFE::pts_voxel_encoder # /home/jing/Workspace/pointcloud/mmdet3d/models/voxel_encoders/voxel_encoder.py:43:0
  %features.1 : Float(21179, 4, strides=[4, 1], requires_grad=0, device=cuda:0) = aten::contiguous(%42140, %54310), scope: mmdet3d.models.detectors.centerpoint.CenterPoint::/mmdet3d.models.voxel_encoders.voxel_encoder.HardSimpleVFE::pts_voxel_encoder # /home/jing/Workspace/pointcloud/mmdet3d/models/voxel_encoders/voxel_encoder.py:45:0
  %54316 : Long(device=cpu) = prim::Constant[value={-1}](), scope: mmdet3d.models.detectors.centerpoint.CenterPoint::
  %42145 : Int(4, strides=[1], requires_grad=0, device=cuda:0) = aten::select(%2, %54310, %54316), scope: mmdet3d.models.detectors.centerpoint.CenterPoint:: # /home/jing/Workspace/mmdeploy/mmdeploy/codebase/mmdet3d/models/centerpoint.py:29:0
  %42148 : Int(requires_grad=0, device=cuda:0) = aten::select(%42145, %54310, %54310), scope: mmdet3d.models.detectors.centerpoint.CenterPoint:: # /home/jing/Workspace/mmdeploy/mmdeploy/codebase/mmdet3d/models/centerpoint.py:29:0
  %42149 : Long(requires_grad=0, device=cpu) = prim::Constant[value={1}](), scope: mmdet3d.models.detectors.centerpoint.CenterPoint:: # /home/jing/Workspace/mmdeploy/mmdeploy/codebase/mmdet3d/models/centerpoint.py:29:0
  %54317 : Long(device=cpu) = prim::Constant[value={1}]()
  %54147 : Int(requires_grad=0, device=cuda:0) = aten::add(%42148, %54317, %54312), scope: mmdet3d.models.detectors.centerpoint.CenterPoint:: # /home/jing/Workspace/mmdeploy/mmdeploy/codebase/mmdet3d/models/centerpoint.py:29:0
  %54318 : Long(device=cpu) = prim::Constant[value={3}](), scope: mmdet3d.models.detectors.centerpoint.CenterPoint::/mmdet3d.models.middle_encoders.sparse_encoder.SparseEncoder::pts_middle_encoder
  %indices.1 : Int(21179, 4, strides=[4, 1], requires_grad=0, device=cuda:0) = aten::to(%2, %54318, %54315, %54315, %42133), scope: mmdet3d.models.detectors.centerpoint.CenterPoint::/mmdet3d.models.middle_encoders.sparse_encoder.SparseEncoder::pts_middle_encoder # /home/jing/Workspace/pointcloud/mmdet3d/models/middle_encoders/sparse_encoder.py:120:0
  %53597 : Int(27, strides=[1], requires_grad=0, device=cuda:0) = prim::Constant[value=<Tensor>]()
  %53598 : Int(27, 2, 21179, strides=[42358, 21179, 1], requires_grad=0, device=cuda:0) = prim::Constant[value=<Tensor>]()
  %42222 : Long(device=cpu) = aten::size(%indices.1, %54310), scope: mmdet3d.models.detectors.centerpoint.CenterPoint::/mmdet3d.models.middle_encoders.sparse_encoder.SparseEncoder::pts_middle_encoder/mmcv.ops.sparse_modules.SparseSequential::conv_input/mmcv.ops.sparse_conv.SubMConv3d::conv_input.0 # /home/jing/anaconda3/lib/python3.9/site-packages/mmcv/ops/sparse_conv.py:186:0
  %input.1 : Float(21179, 16, strides=[16, 1], requires_grad=0, device=cuda:0) = ^SubMConvFunction[inplace=0, module="mmcv.ops.sparse_functional", Subgraph=<Graph>]()(%features.1, %pts_middle_encoder.conv_input.0.weight, %53598, %53597, %42222), scope: mmdet3d.models.detectors.centerpoint.CenterPoint::/mmdet3d.models.middle_encoders.sparse_encoder.SparseEncoder::pts_middle_encoder/mmcv.ops.sparse_modules.SparseSequential::conv_input/mmcv.ops.sparse_conv.SubMConv3d::conv_input.0 # /home/jing/anaconda3/lib/python3.9/site-packages/mmcv/ops/sparse_conv.py:183:0
  %54319 : Double(device=cpu) = prim::Constant[value={0.01}](), scope: mmdet3d.models.detectors.centerpoint.CenterPoint::/mmdet3d.models.middle_encoders.sparse_encoder.SparseEncoder::pts_middle_encoder/mmcv.ops.sparse_modules.SparseSequential::conv_input/torch.nn.modules.batchnorm.BatchNorm1d::conv_input.1
  %54320 : Double(device=cpu) = prim::Constant[value={0.001}](), scope: mmdet3d.models.detectors.centerpoint.CenterPoint::/mmdet3d.models.middle_encoders.sparse_encoder.SparseEncoder::pts_middle_encoder/mmcv.ops.sparse_modules.SparseSequential::conv_input/torch.nn.modules.batchnorm.BatchNorm1d::conv_input.1
  %54321 : Bool(device=cpu) = prim::Constant[value={1}](), scope: mmdet3d.models.detectors.centerpoint.CenterPoint::/mmdet3d.models.middle_encoders.sparse_encoder.SparseEncoder::pts_middle_encoder/mmcv.ops.sparse_modules.SparseSequential::conv_input/torch.nn.modules.batchnorm.BatchNorm1d::conv_input.1
  %input.3 : Float(21179, 16, strides=[16, 1], requires_grad=0, device=cuda:0) = aten::batch_norm(%input.1, %pts_middle_encoder.conv_input.1.weight, %pts_middle_encoder.conv_input.1.bias, %pts_middle_encoder.conv_input.1.running_mean, %pts_middle_encoder.conv_input.1.running_var, %54315, %54319, %54320, %54321), scope: mmdet3d.models.detectors.centerpoint.CenterPoint::/mmdet3d.models.middle_encoders.sparse_encoder.SparseEncoder::pts_middle_encoder/mmcv.ops.sparse_modules.SparseSequential::conv_input/torch.nn.modules.batchnorm.BatchNorm1d::conv_input.1 # /home/jing/anaconda3/lib/python3.9/site-packages/torch/nn/functional.py:2450:0
  %54235 : Float(21179, 16, strides=[16, 1], requires_grad=0, device=cuda:0) = aten::relu(%input.3), scope: mmdet3d.models.detectors.centerpoint.CenterPoint::/mmdet3d.models.middle_encoders.sparse_encoder.SparseEncoder::pts_middle_encoder/mmcv.ops.sparse_modules.SparseSequential::conv_input/torch.nn.modules.activation.ReLU::conv_input.2 # /home/jing/anaconda3/lib/python3.9/site-packages/torch/nn/functional.py:1455:0
  %input.5 : Float(21179, 16, strides=[16, 1], requires_grad=0, device=cuda:0) = ^SubMConvFunction[inplace=0, module="mmcv.ops.sparse_functional", Subgraph=<Graph>]()(%54235, %pts_middle_encoder.encoder_layers.encoder_layer1.0.conv1.weight, %53598, %53597, %42222), scope: mmdet3d.models.detectors.centerpoint.CenterPoint::/mmdet3d.models.middle_encoders.sparse_encoder.SparseEncoder::pts_middle_encoder/mmcv.ops.sparse_modules.SparseSequential::encoder_layer1/mmdet3d.ops.sparse_block.SparseBasicBlock::encoder_layer1.0/mmcv.ops.sparse_conv.SubMConv3d::conv1 # /home/jing/anaconda3/lib/python3.9/site-packages/mmcv/ops/sparse_conv.py:183:0
  %input.7 : Float(21179, 16, strides=[16, 1], requires_grad=0, device=cuda:0) = aten::batch_norm(%input.5, %pts_middle_encoder.encoder_layers.encoder_layer1.0.bn1.weight, %pts_middle_encoder.encoder_layers.encoder_layer1.0.bn1.bias, %pts_middle_encoder.encoder_layers.encoder_layer1.0.bn1.running_mean, %pts_middle_encoder.encoder_layers.encoder_layer1.0.bn1.running_var, %54315, %54319, %54320, %54321), scope: mmdet3d.models.detectors.centerpoint.CenterPoint::/mmdet3d.models.middle_encoders.sparse_encoder.SparseEncoder::pts_middle_encoder/mmcv.ops.sparse_modules.SparseSequential::encoder_layer1/mmdet3d.ops.sparse_block.SparseBasicBlock::encoder_layer1.0/torch.nn.modules.batchnorm.BatchNorm1d::bn1 # /home/jing/anaconda3/lib/python3.9/site-packages/torch/nn/functional.py:2450:0
  %54236 : Float(21179, 16, strides=[16, 1], requires_grad=0, device=cuda:0) = aten::relu(%input.7), scope: mmdet3d.models.detectors.centerpoint.CenterPoint::/mmdet3d.models.middle_encoders.sparse_encoder.SparseEncoder::pts_middle_encoder/mmcv.ops.sparse_modules.SparseSequential::encoder_layer1/mmdet3d.ops.sparse_block.SparseBasicBlock::encoder_layer1.0/torch.nn.modules.activation.ReLU::relu # /home/jing/anaconda3/lib/python3.9/site-packages/torch/nn/functional.py:1455:0
  %input.9 : Float(21179, 16, strides=[16, 1], requires_grad=0, device=cuda:0) = ^SubMConvFunction[inplace=0, module="mmcv.ops.sparse_functional", Subgraph=<Graph>]()(%54236, %pts_middle_encoder.encoder_layers.encoder_layer1.0.conv2.weight, %53598, %53597, %42222), scope: mmdet3d.models.detectors.centerpoint.CenterPoint::/mmdet3d.models.middle_encoders.sparse_encoder.SparseEncoder::pts_middle_encoder/mmcv.ops.sparse_modules.SparseSequential::encoder_layer1/mmdet3d.ops.sparse_block.SparseBasicBlock::encoder_layer1.0/mmcv.ops.sparse_conv.SubMConv3d::conv2 # /home/jing/anaconda3/lib/python3.9/site-packages/mmcv/ops/sparse_conv.py:183:0
  %42982 : Float(21179, 16, strides=[16, 1], requires_grad=0, device=cuda:0) = aten::batch_norm(%input.9, %pts_middle_encoder.encoder_layers.encoder_layer1.0.bn2.weight, %pts_middle_encoder.encoder_layers.encoder_layer1.0.bn2.bias, %pts_middle_encoder.encoder_layers.encoder_layer1.0.bn2.running_mean, %pts_middle_encoder.encoder_layers.encoder_layer1.0.bn2.running_var, %54315, %54319, %54320, %54321), scope: mmdet3d.models.detectors.centerpoint.CenterPoint::/mmdet3d.models.middle_encoders.sparse_encoder.SparseEncoder::pts_middle_encoder/mmcv.ops.sparse_modules.SparseSequential::encoder_layer1/mmdet3d.ops.sparse_block.SparseBasicBlock::encoder_layer1.0/torch.nn.modules.batchnorm.BatchNorm1d::bn2 # /home/jing/anaconda3/lib/python3.9/site-packages/torch/nn/functional.py:2450:0
  %input.11 : Float(21179, 16, strides=[16, 1], requires_grad=0, device=cuda:0) = aten::add(%42982, %54235, %54312), scope: mmdet3d.models.detectors.centerpoint.CenterPoint::/mmdet3d.models.middle_encoders.sparse_encoder.SparseEncoder::pts_middle_encoder/mmcv.ops.sparse_modules.SparseSequential::encoder_layer1/mmdet3d.ops.sparse_block.SparseBasicBlock::encoder_layer1.0 # /home/jing/Workspace/pointcloud/mmdet3d/ops/sparse_block.py:131:0
  %54237 : Float(21179, 16, strides=[16, 1], requires_grad=0, device=cuda:0) = aten::relu(%input.11), scope: mmdet3d.models.detectors.centerpoint.CenterPoint::/mmdet3d.models.middle_encoders.sparse_encoder.SparseEncoder::pts_middle_encoder/mmcv.ops.sparse_modules.SparseSequential::encoder_layer1/mmdet3d.ops.sparse_block.SparseBasicBlock::encoder_layer1.0/torch.nn.modules.activation.ReLU::relu # /home/jing/anaconda3/lib/python3.9/site-packages/torch/nn/functional.py:1455:0
  %input.13 : Float(21179, 16, strides=[16, 1], requires_grad=0, device=cuda:0) = ^SubMConvFunction[inplace=0, module="mmcv.ops.sparse_functional", Subgraph=<Graph>]()(%54237, %pts_middle_encoder.encoder_layers.encoder_layer1.1.conv1.weight, %53598, %53597, %42222), scope: mmdet3d.models.detectors.centerpoint.CenterPoint::/mmdet3d.models.middle_encoders.sparse_encoder.SparseEncoder::pts_middle_encoder/mmcv.ops.sparse_modules.SparseSequential::encoder_layer1/mmdet3d.ops.sparse_block.SparseBasicBlock::encoder_layer1.1/mmcv.ops.sparse_conv.SubMConv3d::conv1 # /home/jing/anaconda3/lib/python3.9/site-packages/mmcv/ops/sparse_conv.py:183:0
  %input.15 : Float(21179, 16, strides=[16, 1], requires_grad=0, device=cuda:0) = aten::batch_norm(%input.13, %pts_middle_encoder.encoder_layers.encoder_layer1.1.bn1.weight, %pts_middle_encoder.encoder_layers.encoder_layer1.1.bn1.bias, %pts_middle_encoder.encoder_layers.encoder_layer1.1.bn1.running_mean, %pts_middle_encoder.encoder_layers.encoder_layer1.1.bn1.running_var, %54315, %54319, %54320, %54321), scope: mmdet3d.models.detectors.centerpoint.CenterPoint::/mmdet3d.models.middle_encoders.sparse_encoder.SparseEncoder::pts_middle_encoder/mmcv.ops.sparse_modules.SparseSequential::encoder_layer1/mmdet3d.ops.sparse_block.SparseBasicBlock::encoder_layer1.1/torch.nn.modules.batchnorm.BatchNorm1d::bn1 # /home/jing/anaconda3/lib/python3.9/site-packages/torch/nn/functional.py:2450:0
  %54238 : Float(21179, 16, strides=[16, 1], requires_grad=0, device=cuda:0) = aten::relu(%input.15), scope: mmdet3d.models.detectors.centerpoint.CenterPoint::/mmdet3d.models.middle_encoders.sparse_encoder.SparseEncoder::pts_middle_encoder/mmcv.ops.sparse_modules.SparseSequential::encoder_layer1/mmdet3d.ops.sparse_block.SparseBasicBlock::encoder_layer1.1/torch.nn.modules.activation.ReLU::relu # /home/jing/anaconda3/lib/python3.9/site-packages/torch/nn/functional.py:1455:0
  %input.17 : Float(21179, 16, strides=[16, 1], requires_grad=0, device=cuda:0) = ^SubMConvFunction[inplace=0, module="mmcv.ops.sparse_functional", Subgraph=<Graph>]()(%54238, %pts_middle_encoder.encoder_layers.encoder_layer1.1.conv2.weight, %53598, %53597, %42222), scope: mmdet3d.models.detectors.centerpoint.CenterPoint::/mmdet3d.models.middle_encoders.sparse_encoder.SparseEncoder::pts_middle_encoder/mmcv.ops.sparse_modules.SparseSequential::encoder_layer1/mmdet3d.ops.sparse_block.SparseBasicBlock::encoder_layer1.1/mmcv.ops.sparse_conv.SubMConv3d::conv2 # /home/jing/anaconda3/lib/python3.9/site-packages/mmcv/ops/sparse_conv.py:183:0
  %43521 : Float(21179, 16, strides=[16, 1], requires_grad=0, device=cuda:0) = aten::batch_norm(%input.17, %pts_middle_encoder.encoder_layers.encoder_layer1.1.bn2.weight, %pts_middle_encoder.encoder_layers.encoder_layer1.1.bn2.bias, %pts_middle_encoder.encoder_layers.encoder_layer1.1.bn2.running_mean, %pts_middle_encoder.encoder_layers.encoder_layer1.1.bn2.running_var, %54315, %54319, %54320, %54321), scope: mmdet3d.models.detectors.centerpoint.CenterPoint::/mmdet3d.models.middle_encoders.sparse_encoder.SparseEncoder::pts_middle_encoder/mmcv.ops.sparse_modules.SparseSequential::encoder_layer1/mmdet3d.ops.sparse_block.SparseBasicBlock::encoder_layer1.1/torch.nn.modules.batchnorm.BatchNorm1d::bn2 # /home/jing/anaconda3/lib/python3.9/site-packages/torch/nn/functional.py:2450:0
  %input.19 : Float(21179, 16, strides=[16, 1], requires_grad=0, device=cuda:0) = aten::add(%43521, %54237, %54312), scope: mmdet3d.models.detectors.centerpoint.CenterPoint::/mmdet3d.models.middle_encoders.sparse_encoder.SparseEncoder::pts_middle_encoder/mmcv.ops.sparse_modules.SparseSequential::encoder_layer1/mmdet3d.ops.sparse_block.SparseBasicBlock::encoder_layer1.1 # /home/jing/Workspace/pointcloud/mmdet3d/ops/sparse_block.py:131:0
  %54239 : Float(21179, 16, strides=[16, 1], requires_grad=0, device=cuda:0) = aten::relu(%input.19), scope: mmdet3d.models.detectors.centerpoint.CenterPoint::/mmdet3d.models.middle_encoders.sparse_encoder.SparseEncoder::pts_middle_encoder/mmcv.ops.sparse_modules.SparseSequential::encoder_layer1/mmdet3d.ops.sparse_block.SparseBasicBlock::encoder_layer1.1/torch.nn.modules.activation.ReLU::relu # /home/jing/anaconda3/lib/python3.9/site-packages/torch/nn/functional.py:1455:0
  %53628 : Long(requires_grad=0, device=cpu) = prim::Constant[value={31787}]()
  %input.21 : Float(31787, 32, strides=[32, 1], requires_grad=0, device=cuda:0) = ^SparseConvFunction[inplace=0, module="mmcv.ops.sparse_functional", Subgraph=<Graph>]()(%54239, %pts_middle_encoder.encoder_layers.encoder_layer1.2.0.weight, %53598, %53597, %53628), scope: mmdet3d.models.detectors.centerpoint.CenterPoint::/mmdet3d.models.middle_encoders.sparse_encoder.SparseEncoder::pts_middle_encoder/mmcv.ops.sparse_modules.SparseSequential::encoder_layer1/mmcv.ops.sparse_modules.SparseSequential::encoder_layer1.2/mmcv.ops.sparse_conv.SparseConv3d::encoder_layer1.2.0 # /home/jing/anaconda3/lib/python3.9/site-packages/mmcv/ops/sparse_conv.py:193:0
  %input.23 : Float(31787, 32, strides=[32, 1], requires_grad=0, device=cuda:0) = aten::batch_norm(%input.21, %pts_middle_encoder.encoder_layers.encoder_layer1.2.1.weight, %pts_middle_encoder.encoder_layers.encoder_layer1.2.1.bias, %pts_middle_encoder.encoder_layers.encoder_layer1.2.1.running_mean, %pts_middle_encoder.encoder_layers.encoder_layer1.2.1.running_var, %54315, %54319, %54320, %54321), scope: mmdet3d.models.detectors.centerpoint.CenterPoint::/mmdet3d.models.middle_encoders.sparse_encoder.SparseEncoder::pts_middle_encoder/mmcv.ops.sparse_modules.SparseSequential::encoder_layer1/mmcv.ops.sparse_modules.SparseSequential::encoder_layer1.2/torch.nn.modules.batchnorm.BatchNorm1d::encoder_layer1.2.1 # /home/jing/anaconda3/lib/python3.9/site-packages/torch/nn/functional.py:2450:0
  %54240 : Float(31787, 32, strides=[32, 1], requires_grad=0, device=cuda:0) = aten::relu(%input.23), scope: mmdet3d.models.detectors.centerpoint.CenterPoint::/mmdet3d.models.middle_encoders.sparse_encoder.SparseEncoder::pts_middle_encoder/mmcv.ops.sparse_modules.SparseSequential::encoder_layer1/mmcv.ops.sparse_modules.SparseSequential::encoder_layer1.2/torch.nn.modules.activation.ReLU::encoder_layer1.2.2 # /home/jing/anaconda3/lib/python3.9/site-packages/torch/nn/functional.py:1455:0
  %53633 : Int(27, 2, 31787, strides=[63574, 31787, 1], requires_grad=0, device=cuda:0) = prim::Constant[value=<Tensor>]()
  %input.25 : Float(31787, 32, strides=[32, 1], requires_grad=0, device=cuda:0) = ^SubMConvFunction[inplace=0, module="mmcv.ops.sparse_functional", Subgraph=<Graph>]()(%54240, %pts_middle_encoder.encoder_layers.encoder_layer2.0.conv1.weight, %53633, %53597, %53628), scope: mmdet3d.models.detectors.centerpoint.CenterPoint::/mmdet3d.models.middle_encoders.sparse_encoder.SparseEncoder::pts_middle_encoder/mmcv.ops.sparse_modules.SparseSequential::encoder_layer2/mmdet3d.ops.sparse_block.SparseBasicBlock::encoder_layer2.0/mmcv.ops.sparse_conv.SubMConv3d::conv1 # /home/jing/anaconda3/lib/python3.9/site-packages/mmcv/ops/sparse_conv.py:183:0
  %input.27 : Float(31787, 32, strides=[32, 1], requires_grad=0, device=cuda:0) = aten::batch_norm(%input.25, %pts_middle_encoder.encoder_layers.encoder_layer2.0.bn1.weight, %pts_middle_encoder.encoder_layers.encoder_layer2.0.bn1.bias, %pts_middle_encoder.encoder_layers.encoder_layer2.0.bn1.running_mean, %pts_middle_encoder.encoder_layers.encoder_layer2.0.bn1.running_var, %54315, %54319, %54320, %54321), scope: mmdet3d.models.detectors.centerpoint.CenterPoint::/mmdet3d.models.middle_encoders.sparse_encoder.SparseEncoder::pts_middle_encoder/mmcv.ops.sparse_modules.SparseSequential::encoder_layer2/mmdet3d.ops.sparse_block.SparseBasicBlock::encoder_layer2.0/torch.nn.modules.batchnorm.BatchNorm1d::bn1 # /home/jing/anaconda3/lib/python3.9/site-packages/torch/nn/functional.py:2450:0
  %54241 : Float(31787, 32, strides=[32, 1], requires_grad=0, device=cuda:0) = aten::relu(%input.27), scope: mmdet3d.models.detectors.centerpoint.CenterPoint::/mmdet3d.models.middle_encoders.sparse_encoder.SparseEncoder::pts_middle_encoder/mmcv.ops.sparse_modules.SparseSequential::encoder_layer2/mmdet3d.ops.sparse_block.SparseBasicBlock::encoder_layer2.0/torch.nn.modules.activation.ReLU::relu # /home/jing/anaconda3/lib/python3.9/site-packages/torch/nn/functional.py:1455:0
  %input.29 : Float(31787, 32, strides=[32, 1], requires_grad=0, device=cuda:0) = ^SubMConvFunction[inplace=0, module="mmcv.ops.sparse_functional", Subgraph=<Graph>]()(%54241, %pts_middle_encoder.encoder_layers.encoder_layer2.0.conv2.weight, %53633, %53597, %53628), scope: mmdet3d.models.detectors.centerpoint.CenterPoint::/mmdet3d.models.middle_encoders.sparse_encoder.SparseEncoder::pts_middle_encoder/mmcv.ops.sparse_modules.SparseSequential::encoder_layer2/mmdet3d.ops.sparse_block.SparseBasicBlock::encoder_layer2.0/mmcv.ops.sparse_conv.SubMConv3d::conv2 # /home/jing/anaconda3/lib/python3.9/site-packages/mmcv/ops/sparse_conv.py:183:0
  %44436 : Float(31787, 32, strides=[32, 1], requires_grad=0, device=cuda:0) = aten::batch_norm(%input.29, %pts_middle_encoder.encoder_layers.encoder_layer2.0.bn2.weight, %pts_middle_encoder.encoder_layers.encoder_layer2.0.bn2.bias, %pts_middle_encoder.encoder_layers.encoder_layer2.0.bn2.running_mean, %pts_middle_encoder.encoder_layers.encoder_layer2.0.bn2.running_var, %54315, %54319, %54320, %54321), scope: mmdet3d.models.detectors.centerpoint.CenterPoint::/mmdet3d.models.middle_encoders.sparse_encoder.SparseEncoder::pts_middle_encoder/mmcv.ops.sparse_modules.SparseSequential::encoder_layer2/mmdet3d.ops.sparse_block.SparseBasicBlock::encoder_layer2.0/torch.nn.modules.batchnorm.BatchNorm1d::bn2 # /home/jing/anaconda3/lib/python3.9/site-packages/torch/nn/functional.py:2450:0
  %input.31 : Float(31787, 32, strides=[32, 1], requires_grad=0, device=cuda:0) = aten::add(%44436, %54240, %54312), scope: mmdet3d.models.detectors.centerpoint.CenterPoint::/mmdet3d.models.middle_encoders.sparse_encoder.SparseEncoder::pts_middle_encoder/mmcv.ops.sparse_modules.SparseSequential::encoder_layer2/mmdet3d.ops.sparse_block.SparseBasicBlock::encoder_layer2.0 # /home/jing/Workspace/pointcloud/mmdet3d/ops/sparse_block.py:131:0
  %54242 : Float(31787, 32, strides=[32, 1], requires_grad=0, device=cuda:0) = aten::relu(%input.31), scope: mmdet3d.models.detectors.centerpoint.CenterPoint::/mmdet3d.models.middle_encoders.sparse_encoder.SparseEncoder::pts_middle_encoder/mmcv.ops.sparse_modules.SparseSequential::encoder_layer2/mmdet3d.ops.sparse_block.SparseBasicBlock::encoder_layer2.0/torch.nn.modules.activation.ReLU::relu # /home/jing/anaconda3/lib/python3.9/site-packages/torch/nn/functional.py:1455:0
  %input.33 : Float(31787, 32, strides=[32, 1], requires_grad=0, device=cuda:0) = ^SubMConvFunction[inplace=0, module="mmcv.ops.sparse_functional", Subgraph=<Graph>]()(%54242, %pts_middle_encoder.encoder_layers.encoder_layer2.1.conv1.weight, %53633, %53597, %53628), scope: mmdet3d.models.detectors.centerpoint.CenterPoint::/mmdet3d.models.middle_encoders.sparse_encoder.SparseEncoder::pts_middle_encoder/mmcv.ops.sparse_modules.SparseSequential::encoder_layer2/mmdet3d.ops.sparse_block.SparseBasicBlock::encoder_layer2.1/mmcv.ops.sparse_conv.SubMConv3d::conv1 # /home/jing/anaconda3/lib/python3.9/site-packages/mmcv/ops/sparse_conv.py:183:0
  %input.35 : Float(31787, 32, strides=[32, 1], requires_grad=0, device=cuda:0) = aten::batch_norm(%input.33, %pts_middle_encoder.encoder_layers.encoder_layer2.1.bn1.weight, %pts_middle_encoder.encoder_layers.encoder_layer2.1.bn1.bias, %pts_middle_encoder.encoder_layers.encoder_layer2.1.bn1.running_mean, %pts_middle_encoder.encoder_layers.encoder_layer2.1.bn1.running_var, %54315, %54319, %54320, %54321), scope: mmdet3d.models.detectors.centerpoint.CenterPoint::/mmdet3d.models.middle_encoders.sparse_encoder.SparseEncoder::pts_middle_encoder/mmcv.ops.sparse_modules.SparseSequential::encoder_layer2/mmdet3d.ops.sparse_block.SparseBasicBlock::encoder_layer2.1/torch.nn.modules.batchnorm.BatchNorm1d::bn1 # /home/jing/anaconda3/lib/python3.9/site-packages/torch/nn/functional.py:2450:0
  %54243 : Float(31787, 32, strides=[32, 1], requires_grad=0, device=cuda:0) = aten::relu(%input.35), scope: mmdet3d.models.detectors.centerpoint.CenterPoint::/mmdet3d.models.middle_encoders.sparse_encoder.SparseEncoder::pts_middle_encoder/mmcv.ops.sparse_modules.SparseSequential::encoder_layer2/mmdet3d.ops.sparse_block.SparseBasicBlock::encoder_layer2.1/torch.nn.modules.activation.ReLU::relu # /home/jing/anaconda3/lib/python3.9/site-packages/torch/nn/functional.py:1455:0
  %input.37 : Float(31787, 32, strides=[32, 1], requires_grad=0, device=cuda:0) = ^SubMConvFunction[inplace=0, module="mmcv.ops.sparse_functional", Subgraph=<Graph>]()(%54243, %pts_middle_encoder.encoder_layers.encoder_layer2.1.conv2.weight, %53633, %53597, %53628), scope: mmdet3d.models.detectors.centerpoint.CenterPoint::/mmdet3d.models.middle_encoders.sparse_encoder.SparseEncoder::pts_middle_encoder/mmcv.ops.sparse_modules.SparseSequential::encoder_layer2/mmdet3d.ops.sparse_block.SparseBasicBlock::encoder_layer2.1/mmcv.ops.sparse_conv.SubMConv3d::conv2 # /home/jing/anaconda3/lib/python3.9/site-packages/mmcv/ops/sparse_conv.py:183:0
  %44975 : Float(31787, 32, strides=[32, 1], requires_grad=0, device=cuda:0) = aten::batch_norm(%input.37, %pts_middle_encoder.encoder_layers.encoder_layer2.1.bn2.weight, %pts_middle_encoder.encoder_layers.encoder_layer2.1.bn2.bias, %pts_middle_encoder.encoder_layers.encoder_layer2.1.bn2.running_mean, %pts_middle_encoder.encoder_layers.encoder_layer2.1.bn2.running_var, %54315, %54319, %54320, %54321), scope: mmdet3d.models.detectors.centerpoint.CenterPoint::/mmdet3d.models.middle_encoders.sparse_encoder.SparseEncoder::pts_middle_encoder/mmcv.ops.sparse_modules.SparseSequential::encoder_layer2/mmdet3d.ops.sparse_block.SparseBasicBlock::encoder_layer2.1/torch.nn.modules.batchnorm.BatchNorm1d::bn2 # /home/jing/anaconda3/lib/python3.9/site-packages/torch/nn/functional.py:2450:0
  %input.39 : Float(31787, 32, strides=[32, 1], requires_grad=0, device=cuda:0) = aten::add(%44975, %54242, %54312), scope: mmdet3d.models.detectors.centerpoint.CenterPoint::/mmdet3d.models.middle_encoders.sparse_encoder.SparseEncoder::pts_middle_encoder/mmcv.ops.sparse_modules.SparseSequential::encoder_layer2/mmdet3d.ops.sparse_block.SparseBasicBlock::encoder_layer2.1 # /home/jing/Workspace/pointcloud/mmdet3d/ops/sparse_block.py:131:0
  %54244 : Float(31787, 32, strides=[32, 1], requires_grad=0, device=cuda:0) = aten::relu(%input.39), scope: mmdet3d.models.detectors.centerpoint.CenterPoint::/mmdet3d.models.middle_encoders.sparse_encoder.SparseEncoder::pts_middle_encoder/mmcv.ops.sparse_modules.SparseSequential::encoder_layer2/mmdet3d.ops.sparse_block.SparseBasicBlock::encoder_layer2.1/torch.nn.modules.activation.ReLU::relu # /home/jing/anaconda3/lib/python3.9/site-packages/torch/nn/functional.py:1455:0
  %53666 : Long(requires_grad=0, device=cpu) = prim::Constant[value={15582}]()
  %input.41 : Float(15582, 64, strides=[64, 1], requires_grad=0, device=cuda:0) = ^SparseConvFunction[inplace=0, module="mmcv.ops.sparse_functional", Subgraph=<Graph>]()(%54244, %pts_middle_encoder.encoder_layers.encoder_layer2.2.0.weight, %53633, %53597, %53666), scope: mmdet3d.models.detectors.centerpoint.CenterPoint::/mmdet3d.models.middle_encoders.sparse_encoder.SparseEncoder::pts_middle_encoder/mmcv.ops.sparse_modules.SparseSequential::encoder_layer2/mmcv.ops.sparse_modules.SparseSequential::encoder_layer2.2/mmcv.ops.sparse_conv.SparseConv3d::encoder_layer2.2.0 # /home/jing/anaconda3/lib/python3.9/site-packages/mmcv/ops/sparse_conv.py:193:0
  %input.43 : Float(15582, 64, strides=[64, 1], requires_grad=0, device=cuda:0) = aten::batch_norm(%input.41, %pts_middle_encoder.encoder_layers.encoder_layer2.2.1.weight, %pts_middle_encoder.encoder_layers.encoder_layer2.2.1.bias, %pts_middle_encoder.encoder_layers.encoder_layer2.2.1.running_mean, %pts_middle_encoder.encoder_layers.encoder_layer2.2.1.running_var, %54315, %54319, %54320, %54321), scope: mmdet3d.models.detectors.centerpoint.CenterPoint::/mmdet3d.models.middle_encoders.sparse_encoder.SparseEncoder::pts_middle_encoder/mmcv.ops.sparse_modules.SparseSequential::encoder_layer2/mmcv.ops.sparse_modules.SparseSequential::encoder_layer2.2/torch.nn.modules.batchnorm.BatchNorm1d::encoder_layer2.2.1 # /home/jing/anaconda3/lib/python3.9/site-packages/torch/nn/functional.py:2450:0
  %54245 : Float(15582, 64, strides=[64, 1], requires_grad=0, device=cuda:0) = aten::relu(%input.43), scope: mmdet3d.models.detectors.centerpoint.CenterPoint::/mmdet3d.models.middle_encoders.sparse_encoder.SparseEncoder::pts_middle_encoder/mmcv.ops.sparse_modules.SparseSequential::encoder_layer2/mmcv.ops.sparse_modules.SparseSequential::encoder_layer2.2/torch.nn.modules.activation.ReLU::encoder_layer2.2.2 # /home/jing/anaconda3/lib/python3.9/site-packages/torch/nn/functional.py:1455:0
  %53671 : Int(27, 2, 15582, strides=[31164, 15582, 1], requires_grad=0, device=cuda:0) = prim::Constant[value=<Tensor>]()
  %input.45 : Float(15582, 64, strides=[64, 1], requires_grad=0, device=cuda:0) = ^SubMConvFunction[inplace=0, module="mmcv.ops.sparse_functional", Subgraph=<Graph>]()(%54245, %pts_middle_encoder.encoder_layers.encoder_layer3.0.conv1.weight, %53671, %53597, %53666), scope: mmdet3d.models.detectors.centerpoint.CenterPoint::/mmdet3d.models.middle_encoders.sparse_encoder.SparseEncoder::pts_middle_encoder/mmcv.ops.sparse_modules.SparseSequential::encoder_layer3/mmdet3d.ops.sparse_block.SparseBasicBlock::encoder_layer3.0/mmcv.ops.sparse_conv.SubMConv3d::conv1 # /home/jing/anaconda3/lib/python3.9/site-packages/mmcv/ops/sparse_conv.py:183:0
  %input.47 : Float(15582, 64, strides=[64, 1], requires_grad=0, device=cuda:0) = aten::batch_norm(%input.45, %pts_middle_encoder.encoder_layers.encoder_layer3.0.bn1.weight, %pts_middle_encoder.encoder_layers.encoder_layer3.0.bn1.bias, %pts_middle_encoder.encoder_layers.encoder_layer3.0.bn1.running_mean, %pts_middle_encoder.encoder_layers.encoder_layer3.0.bn1.running_var, %54315, %54319, %54320, %54321), scope: mmdet3d.models.detectors.centerpoint.CenterPoint::/mmdet3d.models.middle_encoders.sparse_encoder.SparseEncoder::pts_middle_encoder/mmcv.ops.sparse_modules.SparseSequential::encoder_layer3/mmdet3d.ops.sparse_block.SparseBasicBlock::encoder_layer3.0/torch.nn.modules.batchnorm.BatchNorm1d::bn1 # /home/jing/anaconda3/lib/python3.9/site-packages/torch/nn/functional.py:2450:0
  %54246 : Float(15582, 64, strides=[64, 1], requires_grad=0, device=cuda:0) = aten::relu(%input.47), scope: mmdet3d.models.detectors.centerpoint.CenterPoint::/mmdet3d.models.middle_encoders.sparse_encoder.SparseEncoder::pts_middle_encoder/mmcv.ops.sparse_modules.SparseSequential::encoder_layer3/mmdet3d.ops.sparse_block.SparseBasicBlock::encoder_layer3.0/torch.nn.modules.activation.ReLU::relu # /home/jing/anaconda3/lib/python3.9/site-packages/torch/nn/functional.py:1455:0
  %input.49 : Float(15582, 64, strides=[64, 1], requires_grad=0, device=cuda:0) = ^SubMConvFunction[inplace=0, module="mmcv.ops.sparse_functional", Subgraph=<Graph>]()(%54246, %pts_middle_encoder.encoder_layers.encoder_layer3.0.conv2.weight, %53671, %53597, %53666), scope: mmdet3d.models.detectors.centerpoint.CenterPoint::/mmdet3d.models.middle_encoders.sparse_encoder.SparseEncoder::pts_middle_encoder/mmcv.ops.sparse_modules.SparseSequential::encoder_layer3/mmdet3d.ops.sparse_block.SparseBasicBlock::encoder_layer3.0/mmcv.ops.sparse_conv.SubMConv3d::conv2 # /home/jing/anaconda3/lib/python3.9/site-packages/mmcv/ops/sparse_conv.py:183:0
  %45890 : Float(15582, 64, strides=[64, 1], requires_grad=0, device=cuda:0) = aten::batch_norm(%input.49, %pts_middle_encoder.encoder_layers.encoder_layer3.0.bn2.weight, %pts_middle_encoder.encoder_layers.encoder_layer3.0.bn2.bias, %pts_middle_encoder.encoder_layers.encoder_layer3.0.bn2.running_mean, %pts_middle_encoder.encoder_layers.encoder_layer3.0.bn2.running_var, %54315, %54319, %54320, %54321), scope: mmdet3d.models.detectors.centerpoint.CenterPoint::/mmdet3d.models.middle_encoders.sparse_encoder.SparseEncoder::pts_middle_encoder/mmcv.ops.sparse_modules.SparseSequential::encoder_layer3/mmdet3d.ops.sparse_block.SparseBasicBlock::encoder_layer3.0/torch.nn.modules.batchnorm.BatchNorm1d::bn2 # /home/jing/anaconda3/lib/python3.9/site-packages/torch/nn/functional.py:2450:0
  %input.51 : Float(15582, 64, strides=[64, 1], requires_grad=0, device=cuda:0) = aten::add(%45890, %54245, %54312), scope: mmdet3d.models.detectors.centerpoint.CenterPoint::/mmdet3d.models.middle_encoders.sparse_encoder.SparseEncoder::pts_middle_encoder/mmcv.ops.sparse_modules.SparseSequential::encoder_layer3/mmdet3d.ops.sparse_block.SparseBasicBlock::encoder_layer3.0 # /home/jing/Workspace/pointcloud/mmdet3d/ops/sparse_block.py:131:0
  %54247 : Float(15582, 64, strides=[64, 1], requires_grad=0, device=cuda:0) = aten::relu(%input.51), scope: mmdet3d.models.detectors.centerpoint.CenterPoint::/mmdet3d.models.middle_encoders.sparse_encoder.SparseEncoder::pts_middle_encoder/mmcv.ops.sparse_modules.SparseSequential::encoder_layer3/mmdet3d.ops.sparse_block.SparseBasicBlock::encoder_layer3.0/torch.nn.modules.activation.ReLU::relu # /home/jing/anaconda3/lib/python3.9/site-packages/torch/nn/functional.py:1455:0
  %input.53 : Float(15582, 64, strides=[64, 1], requires_grad=0, device=cuda:0) = ^SubMConvFunction[inplace=0, module="mmcv.ops.sparse_functional", Subgraph=<Graph>]()(%54247, %pts_middle_encoder.encoder_layers.encoder_layer3.1.conv1.weight, %53671, %53597, %53666), scope: mmdet3d.models.detectors.centerpoint.CenterPoint::/mmdet3d.models.middle_encoders.sparse_encoder.SparseEncoder::pts_middle_encoder/mmcv.ops.sparse_modules.SparseSequential::encoder_layer3/mmdet3d.ops.sparse_block.SparseBasicBlock::encoder_layer3.1/mmcv.ops.sparse_conv.SubMConv3d::conv1 # /home/jing/anaconda3/lib/python3.9/site-packages/mmcv/ops/sparse_conv.py:183:0
  %input.55 : Float(15582, 64, strides=[64, 1], requires_grad=0, device=cuda:0) = aten::batch_norm(%input.53, %pts_middle_encoder.encoder_layers.encoder_layer3.1.bn1.weight, %pts_middle_encoder.encoder_layers.encoder_layer3.1.bn1.bias, %pts_middle_encoder.encoder_layers.encoder_layer3.1.bn1.running_mean, %pts_middle_encoder.encoder_layers.encoder_layer3.1.bn1.running_var, %54315, %54319, %54320, %54321), scope: mmdet3d.models.detectors.centerpoint.CenterPoint::/mmdet3d.models.middle_encoders.sparse_encoder.SparseEncoder::pts_middle_encoder/mmcv.ops.sparse_modules.SparseSequential::encoder_layer3/mmdet3d.ops.sparse_block.SparseBasicBlock::encoder_layer3.1/torch.nn.modules.batchnorm.BatchNorm1d::bn1 # /home/jing/anaconda3/lib/python3.9/site-packages/torch/nn/functional.py:2450:0
  %54248 : Float(15582, 64, strides=[64, 1], requires_grad=0, device=cuda:0) = aten::relu(%input.55), scope: mmdet3d.models.detectors.centerpoint.CenterPoint::/mmdet3d.models.middle_encoders.sparse_encoder.SparseEncoder::pts_middle_encoder/mmcv.ops.sparse_modules.SparseSequential::encoder_layer3/mmdet3d.ops.sparse_block.SparseBasicBlock::encoder_layer3.1/torch.nn.modules.activation.ReLU::relu # /home/jing/anaconda3/lib/python3.9/site-packages/torch/nn/functional.py:1455:0
  %input.57 : Float(15582, 64, strides=[64, 1], requires_grad=0, device=cuda:0) = ^SubMConvFunction[inplace=0, module="mmcv.ops.sparse_functional", Subgraph=<Graph>]()(%54248, %pts_middle_encoder.encoder_layers.encoder_layer3.1.conv2.weight, %53671, %53597, %53666), scope: mmdet3d.models.detectors.centerpoint.CenterPoint::/mmdet3d.models.middle_encoders.sparse_encoder.SparseEncoder::pts_middle_encoder/mmcv.ops.sparse_modules.SparseSequential::encoder_layer3/mmdet3d.ops.sparse_block.SparseBasicBlock::encoder_layer3.1/mmcv.ops.sparse_conv.SubMConv3d::conv2 # /home/jing/anaconda3/lib/python3.9/site-packages/mmcv/ops/sparse_conv.py:183:0
  %46429 : Float(15582, 64, strides=[64, 1], requires_grad=0, device=cuda:0) = aten::batch_norm(%input.57, %pts_middle_encoder.encoder_layers.encoder_layer3.1.bn2.weight, %pts_middle_encoder.encoder_layers.encoder_layer3.1.bn2.bias, %pts_middle_encoder.encoder_layers.encoder_layer3.1.bn2.running_mean, %pts_middle_encoder.encoder_layers.encoder_layer3.1.bn2.running_var, %54315, %54319, %54320, %54321), scope: mmdet3d.models.detectors.centerpoint.CenterPoint::/mmdet3d.models.middle_encoders.sparse_encoder.SparseEncoder::pts_middle_encoder/mmcv.ops.sparse_modules.SparseSequential::encoder_layer3/mmdet3d.ops.sparse_block.SparseBasicBlock::encoder_layer3.1/torch.nn.modules.batchnorm.BatchNorm1d::bn2 # /home/jing/anaconda3/lib/python3.9/site-packages/torch/nn/functional.py:2450:0
  %input.59 : Float(15582, 64, strides=[64, 1], requires_grad=0, device=cuda:0) = aten::add(%46429, %54247, %54312), scope: mmdet3d.models.detectors.centerpoint.CenterPoint::/mmdet3d.models.middle_encoders.sparse_encoder.SparseEncoder::pts_middle_encoder/mmcv.ops.sparse_modules.SparseSequential::encoder_layer3/mmdet3d.ops.sparse_block.SparseBasicBlock::encoder_layer3.1 # /home/jing/Workspace/pointcloud/mmdet3d/ops/sparse_block.py:131:0
  %54249 : Float(15582, 64, strides=[64, 1], requires_grad=0, device=cuda:0) = aten::relu(%input.59), scope: mmdet3d.models.detectors.centerpoint.CenterPoint::/mmdet3d.models.middle_encoders.sparse_encoder.SparseEncoder::pts_middle_encoder/mmcv.ops.sparse_modules.SparseSequential::encoder_layer3/mmdet3d.ops.sparse_block.SparseBasicBlock::encoder_layer3.1/torch.nn.modules.activation.ReLU::relu # /home/jing/anaconda3/lib/python3.9/site-packages/torch/nn/functional.py:1455:0
  %53704 : Long(requires_grad=0, device=cpu) = prim::Constant[value={6165}]()
  %input.61 : Float(6165, 128, strides=[128, 1], requires_grad=0, device=cuda:0) = ^SparseConvFunction[inplace=0, module="mmcv.ops.sparse_functional", Subgraph=<Graph>]()(%54249, %pts_middle_encoder.encoder_layers.encoder_layer3.2.0.weight, %53671, %53597, %53704), scope: mmdet3d.models.detectors.centerpoint.CenterPoint::/mmdet3d.models.middle_encoders.sparse_encoder.SparseEncoder::pts_middle_encoder/mmcv.ops.sparse_modules.SparseSequential::encoder_layer3/mmcv.ops.sparse_modules.SparseSequential::encoder_layer3.2/mmcv.ops.sparse_conv.SparseConv3d::encoder_layer3.2.0 # /home/jing/anaconda3/lib/python3.9/site-packages/mmcv/ops/sparse_conv.py:193:0
  %input.63 : Float(6165, 128, strides=[128, 1], requires_grad=0, device=cuda:0) = aten::batch_norm(%input.61, %pts_middle_encoder.encoder_layers.encoder_layer3.2.1.weight, %pts_middle_encoder.encoder_layers.encoder_layer3.2.1.bias, %pts_middle_encoder.encoder_layers.encoder_layer3.2.1.running_mean, %pts_middle_encoder.encoder_layers.encoder_layer3.2.1.running_var, %54315, %54319, %54320, %54321), scope: mmdet3d.models.detectors.centerpoint.CenterPoint::/mmdet3d.models.middle_encoders.sparse_encoder.SparseEncoder::pts_middle_encoder/mmcv.ops.sparse_modules.SparseSequential::encoder_layer3/mmcv.ops.sparse_modules.SparseSequential::encoder_layer3.2/torch.nn.modules.batchnorm.BatchNorm1d::encoder_layer3.2.1 # /home/jing/anaconda3/lib/python3.9/site-packages/torch/nn/functional.py:2450:0
  %54250 : Float(6165, 128, strides=[128, 1], requires_grad=0, device=cuda:0) = aten::relu(%input.63), scope: mmdet3d.models.detectors.centerpoint.CenterPoint::/mmdet3d.models.middle_encoders.sparse_encoder.SparseEncoder::pts_middle_encoder/mmcv.ops.sparse_modules.SparseSequential::encoder_layer3/mmcv.ops.sparse_modules.SparseSequential::encoder_layer3.2/torch.nn.modules.activation.ReLU::encoder_layer3.2.2 # /home/jing/anaconda3/lib/python3.9/site-packages/torch/nn/functional.py:1455:0
  %53709 : Int(27, 2, 6165, strides=[12330, 6165, 1], requires_grad=0, device=cuda:0) = prim::Constant[value=<Tensor>]()
  %input.65 : Float(6165, 128, strides=[128, 1], requires_grad=0, device=cuda:0) = ^SubMConvFunction[inplace=0, module="mmcv.ops.sparse_functional", Subgraph=<Graph>]()(%54250, %pts_middle_encoder.encoder_layers.encoder_layer4.0.conv1.weight, %53709, %53597, %53704), scope: mmdet3d.models.detectors.centerpoint.CenterPoint::/mmdet3d.models.middle_encoders.sparse_encoder.SparseEncoder::pts_middle_encoder/mmcv.ops.sparse_modules.SparseSequential::encoder_layer4/mmdet3d.ops.sparse_block.SparseBasicBlock::encoder_layer4.0/mmcv.ops.sparse_conv.SubMConv3d::conv1 # /home/jing/anaconda3/lib/python3.9/site-packages/mmcv/ops/sparse_conv.py:183:0
  %input.67 : Float(6165, 128, strides=[128, 1], requires_grad=0, device=cuda:0) = aten::batch_norm(%input.65, %pts_middle_encoder.encoder_layers.encoder_layer4.0.bn1.weight, %pts_middle_encoder.encoder_layers.encoder_layer4.0.bn1.bias, %pts_middle_encoder.encoder_layers.encoder_layer4.0.bn1.running_mean, %pts_middle_encoder.encoder_layers.encoder_layer4.0.bn1.running_var, %54315, %54319, %54320, %54321), scope: mmdet3d.models.detectors.centerpoint.CenterPoint::/mmdet3d.models.middle_encoders.sparse_encoder.SparseEncoder::pts_middle_encoder/mmcv.ops.sparse_modules.SparseSequential::encoder_layer4/mmdet3d.ops.sparse_block.SparseBasicBlock::encoder_layer4.0/torch.nn.modules.batchnorm.BatchNorm1d::bn1 # /home/jing/anaconda3/lib/python3.9/site-packages/torch/nn/functional.py:2450:0
  %54251 : Float(6165, 128, strides=[128, 1], requires_grad=0, device=cuda:0) = aten::relu(%input.67), scope: mmdet3d.models.detectors.centerpoint.CenterPoint::/mmdet3d.models.middle_encoders.sparse_encoder.SparseEncoder::pts_middle_encoder/mmcv.ops.sparse_modules.SparseSequential::encoder_layer4/mmdet3d.ops.sparse_block.SparseBasicBlock::encoder_layer4.0/torch.nn.modules.activation.ReLU::relu # /home/jing/anaconda3/lib/python3.9/site-packages/torch/nn/functional.py:1455:0
  %input.69 : Float(6165, 128, strides=[128, 1], requires_grad=0, device=cuda:0) = ^SubMConvFunction[inplace=0, module="mmcv.ops.sparse_functional", Subgraph=<Graph>]()(%54251, %pts_middle_encoder.encoder_layers.encoder_layer4.0.conv2.weight, %53709, %53597, %53704), scope: mmdet3d.models.detectors.centerpoint.CenterPoint::/mmdet3d.models.middle_encoders.sparse_encoder.SparseEncoder::pts_middle_encoder/mmcv.ops.sparse_modules.SparseSequential::encoder_layer4/mmdet3d.ops.sparse_block.SparseBasicBlock::encoder_layer4.0/mmcv.ops.sparse_conv.SubMConv3d::conv2 # /home/jing/anaconda3/lib/python3.9/site-packages/mmcv/ops/sparse_conv.py:183:0
  %47340 : Float(6165, 128, strides=[128, 1], requires_grad=0, device=cuda:0) = aten::batch_norm(%input.69, %pts_middle_encoder.encoder_layers.encoder_layer4.0.bn2.weight, %pts_middle_encoder.encoder_layers.encoder_layer4.0.bn2.bias, %pts_middle_encoder.encoder_layers.encoder_layer4.0.bn2.running_mean, %pts_middle_encoder.encoder_layers.encoder_layer4.0.bn2.running_var, %54315, %54319, %54320, %54321), scope: mmdet3d.models.detectors.centerpoint.CenterPoint::/mmdet3d.models.middle_encoders.sparse_encoder.SparseEncoder::pts_middle_encoder/mmcv.ops.sparse_modules.SparseSequential::encoder_layer4/mmdet3d.ops.sparse_block.SparseBasicBlock::encoder_layer4.0/torch.nn.modules.batchnorm.BatchNorm1d::bn2 # /home/jing/anaconda3/lib/python3.9/site-packages/torch/nn/functional.py:2450:0
  %input.71 : Float(6165, 128, strides=[128, 1], requires_grad=0, device=cuda:0) = aten::add(%47340, %54250, %54312), scope: mmdet3d.models.detectors.centerpoint.CenterPoint::/mmdet3d.models.middle_encoders.sparse_encoder.SparseEncoder::pts_middle_encoder/mmcv.ops.sparse_modules.SparseSequential::encoder_layer4/mmdet3d.ops.sparse_block.SparseBasicBlock::encoder_layer4.0 # /home/jing/Workspace/pointcloud/mmdet3d/ops/sparse_block.py:131:0
  %54252 : Float(6165, 128, strides=[128, 1], requires_grad=0, device=cuda:0) = aten::relu(%input.71), scope: mmdet3d.models.detectors.centerpoint.CenterPoint::/mmdet3d.models.middle_encoders.sparse_encoder.SparseEncoder::pts_middle_encoder/mmcv.ops.sparse_modules.SparseSequential::encoder_layer4/mmdet3d.ops.sparse_block.SparseBasicBlock::encoder_layer4.0/torch.nn.modules.activation.ReLU::relu # /home/jing/anaconda3/lib/python3.9/site-packages/torch/nn/functional.py:1455:0
  %input.73 : Float(6165, 128, strides=[128, 1], requires_grad=0, device=cuda:0) = ^SubMConvFunction[inplace=0, module="mmcv.ops.sparse_functional", Subgraph=<Graph>]()(%54252, %pts_middle_encoder.encoder_layers.encoder_layer4.1.conv1.weight, %53709, %53597, %53704), scope: mmdet3d.models.detectors.centerpoint.CenterPoint::/mmdet3d.models.middle_encoders.sparse_encoder.SparseEncoder::pts_middle_encoder/mmcv.ops.sparse_modules.SparseSequential::encoder_layer4/mmdet3d.ops.sparse_block.SparseBasicBlock::encoder_layer4.1/mmcv.ops.sparse_conv.SubMConv3d::conv1 # /home/jing/anaconda3/lib/python3.9/site-packages/mmcv/ops/sparse_conv.py:183:0
  %input.75 : Float(6165, 128, strides=[128, 1], requires_grad=0, device=cuda:0) = aten::batch_norm(%input.73, %pts_middle_encoder.encoder_layers.encoder_layer4.1.bn1.weight, %pts_middle_encoder.encoder_layers.encoder_layer4.1.bn1.bias, %pts_middle_encoder.encoder_layers.encoder_layer4.1.bn1.running_mean, %pts_middle_encoder.encoder_layers.encoder_layer4.1.bn1.running_var, %54315, %54319, %54320, %54321), scope: mmdet3d.models.detectors.centerpoint.CenterPoint::/mmdet3d.models.middle_encoders.sparse_encoder.SparseEncoder::pts_middle_encoder/mmcv.ops.sparse_modules.SparseSequential::encoder_layer4/mmdet3d.ops.sparse_block.SparseBasicBlock::encoder_layer4.1/torch.nn.modules.batchnorm.BatchNorm1d::bn1 # /home/jing/anaconda3/lib/python3.9/site-packages/torch/nn/functional.py:2450:0
  %54253 : Float(6165, 128, strides=[128, 1], requires_grad=0, device=cuda:0) = aten::relu(%input.75), scope: mmdet3d.models.detectors.centerpoint.CenterPoint::/mmdet3d.models.middle_encoders.sparse_encoder.SparseEncoder::pts_middle_encoder/mmcv.ops.sparse_modules.SparseSequential::encoder_layer4/mmdet3d.ops.sparse_block.SparseBasicBlock::encoder_layer4.1/torch.nn.modules.activation.ReLU::relu # /home/jing/anaconda3/lib/python3.9/site-packages/torch/nn/functional.py:1455:0
  %input.77 : Float(6165, 128, strides=[128, 1], requires_grad=0, device=cuda:0) = ^SubMConvFunction[inplace=0, module="mmcv.ops.sparse_functional", Subgraph=<Graph>]()(%54253, %pts_middle_encoder.encoder_layers.encoder_layer4.1.conv2.weight, %53709, %53597, %53704), scope: mmdet3d.models.detectors.centerpoint.CenterPoint::/mmdet3d.models.middle_encoders.sparse_encoder.SparseEncoder::pts_middle_encoder/mmcv.ops.sparse_modules.SparseSequential::encoder_layer4/mmdet3d.ops.sparse_block.SparseBasicBlock::encoder_layer4.1/mmcv.ops.sparse_conv.SubMConv3d::conv2 # /home/jing/anaconda3/lib/python3.9/site-packages/mmcv/ops/sparse_conv.py:183:0
  %47879 : Float(6165, 128, strides=[128, 1], requires_grad=0, device=cuda:0) = aten::batch_norm(%input.77, %pts_middle_encoder.encoder_layers.encoder_layer4.1.bn2.weight, %pts_middle_encoder.encoder_layers.encoder_layer4.1.bn2.bias, %pts_middle_encoder.encoder_layers.encoder_layer4.1.bn2.running_mean, %pts_middle_encoder.encoder_layers.encoder_layer4.1.bn2.running_var, %54315, %54319, %54320, %54321), scope: mmdet3d.models.detectors.centerpoint.CenterPoint::/mmdet3d.models.middle_encoders.sparse_encoder.SparseEncoder::pts_middle_encoder/mmcv.ops.sparse_modules.SparseSequential::encoder_layer4/mmdet3d.ops.sparse_block.SparseBasicBlock::encoder_layer4.1/torch.nn.modules.batchnorm.BatchNorm1d::bn2 # /home/jing/anaconda3/lib/python3.9/site-packages/torch/nn/functional.py:2450:0
  %input.79 : Float(6165, 128, strides=[128, 1], requires_grad=0, device=cuda:0) = aten::add(%47879, %54252, %54312), scope: mmdet3d.models.detectors.centerpoint.CenterPoint::/mmdet3d.models.middle_encoders.sparse_encoder.SparseEncoder::pts_middle_encoder/mmcv.ops.sparse_modules.SparseSequential::encoder_layer4/mmdet3d.ops.sparse_block.SparseBasicBlock::encoder_layer4.1 # /home/jing/Workspace/pointcloud/mmdet3d/ops/sparse_block.py:131:0
  %54254 : Float(6165, 128, strides=[128, 1], requires_grad=0, device=cuda:0) = aten::relu(%input.79), scope: mmdet3d.models.detectors.centerpoint.CenterPoint::/mmdet3d.models.middle_encoders.sparse_encoder.SparseEncoder::pts_middle_encoder/mmcv.ops.sparse_modules.SparseSequential::encoder_layer4/mmdet3d.ops.sparse_block.SparseBasicBlock::encoder_layer4.1/torch.nn.modules.activation.ReLU::relu # /home/jing/anaconda3/lib/python3.9/site-packages/torch/nn/functional.py:1455:0
  %53736 : Int(3, strides=[1], requires_grad=0, device=cuda:0) = prim::Constant[value= 0  0  0 [ CUDAIntType{3} ]]()
  %53740 : Int(3, 2, 6165, strides=[12330, 6165, 1], requires_grad=0, device=cuda:0) = prim::Constant[value=<Tensor>]()
  %53742 : Long(requires_grad=0, device=cpu) = prim::Constant[value={5543}]()
  %input.81 : Float(5543, 128, strides=[128, 1], requires_grad=0, device=cuda:0) = ^SparseConvFunction[inplace=0, module="mmcv.ops.sparse_functional", Subgraph=<Graph>]()(%54254, %pts_middle_encoder.conv_out.0.weight, %53740, %53736, %53742), scope: mmdet3d.models.detectors.centerpoint.CenterPoint::/mmdet3d.models.middle_encoders.sparse_encoder.SparseEncoder::pts_middle_encoder/mmcv.ops.sparse_modules.SparseSequential::conv_out/mmcv.ops.sparse_conv.SparseConv3d::conv_out.0 # /home/jing/anaconda3/lib/python3.9/site-packages/mmcv/ops/sparse_conv.py:193:0
  %input.83 : Float(5543, 128, strides=[128, 1], requires_grad=0, device=cuda:0) = aten::batch_norm(%input.81, %pts_middle_encoder.conv_out.1.weight, %pts_middle_encoder.conv_out.1.bias, %pts_middle_encoder.conv_out.1.running_mean, %pts_middle_encoder.conv_out.1.running_var, %54315, %54319, %54320, %54321), scope: mmdet3d.models.detectors.centerpoint.CenterPoint::/mmdet3d.models.middle_encoders.sparse_encoder.SparseEncoder::pts_middle_encoder/mmcv.ops.sparse_modules.SparseSequential::conv_out/torch.nn.modules.batchnorm.BatchNorm1d::conv_out.1 # /home/jing/anaconda3/lib/python3.9/site-packages/torch/nn/functional.py:2450:0
  %54255 : Float(5543, 128, strides=[128, 1], requires_grad=0, device=cuda:0) = aten::relu(%input.83), scope: mmdet3d.models.detectors.centerpoint.CenterPoint::/mmdet3d.models.middle_encoders.sparse_encoder.SparseEncoder::pts_middle_encoder/mmcv.ops.sparse_modules.SparseSequential::conv_out/torch.nn.modules.activation.ReLU::conv_out.2 # /home/jing/anaconda3/lib/python3.9/site-packages/torch/nn/functional.py:1455:0
  %48057 : Long(device=cpu) = aten::size(%54255, %54312), scope: mmdet3d.models.detectors.centerpoint.CenterPoint::/mmdet3d.models.middle_encoders.sparse_encoder.SparseEncoder::pts_middle_encoder # /home/jing/anaconda3/lib/python3.9/site-packages/mmcv/ops/sparse_structure.py:54:0
  %54322 : Long(device=cpu) = prim::Constant[value={50}](), scope: mmdet3d.models.detectors.centerpoint.CenterPoint::/mmdet3d.models.middle_encoders.sparse_encoder.SparseEncoder::pts_middle_encoder
  %54323 : Long(device=cpu) = prim::Constant[value={150}](), scope: mmdet3d.models.detectors.centerpoint.CenterPoint::/mmdet3d.models.middle_encoders.sparse_encoder.SparseEncoder::pts_middle_encoder
  %48069 : int[] = prim::ListConstruct(%54147, %54313, %54322, %54323, %48057), scope: mmdet3d.models.detectors.centerpoint.CenterPoint::/mmdet3d.models.middle_encoders.sparse_encoder.SparseEncoder::pts_middle_encoder
  %54324 : Long(device=cpu) = prim::Constant[value={6}](), scope: mmdet3d.models.detectors.centerpoint.CenterPoint::/mmdet3d.models.middle_encoders.sparse_encoder.SparseEncoder::pts_middle_encoder
  %48072 : Device = prim::Constant[value="cuda:0"](), scope: mmdet3d.models.detectors.centerpoint.CenterPoint::/mmdet3d.models.middle_encoders.sparse_encoder.SparseEncoder::pts_middle_encoder # /home/jing/anaconda3/lib/python3.9/site-packages/mmcv/ops/sparse_structure.py:14:0
  %54325 : Long(device=cpu) = prim::Constant[value={5543}]()
  %48130 : int[] = prim::ListConstruct(%54325, %48057), scope: mmdet3d.models.detectors.centerpoint.CenterPoint::/mmdet3d.models.middle_encoders.sparse_encoder.SparseEncoder::pts_middle_encoder
  %48131 : Float(5543, 128, strides=[128, 1], requires_grad=0, device=cuda:0) = aten::view(%54255, %48130), scope: mmdet3d.models.detectors.centerpoint.CenterPoint::/mmdet3d.models.middle_encoders.sparse_encoder.SparseEncoder::pts_middle_encoder # /home/jing/anaconda3/lib/python3.9/site-packages/mmcv/ops/sparse_structure.py:20:0
  %54121 : Long(5543, strides=[4], requires_grad=0, device=cuda:0) = prim::Constant[value=<Tensor>]()
  %54125 : Tensor[] = prim::ListConstruct(%54121, %54121, %54121, %54121)
  %48074 : Float(1, 2, 50, 150, 128, strides=[1920000, 960000, 19200, 128, 1], requires_grad=0, device=cuda:0) = aten::zeros(%48069, %54324, %42133, %48072, %54315), scope: mmdet3d.models.detectors.centerpoint.CenterPoint::/mmdet3d.models.middle_encoders.sparse_encoder.SparseEncoder::pts_middle_encoder # /home/jing/anaconda3/lib/python3.9/site-packages/mmcv/ops/sparse_structure.py:14:0
  %54297 : Tensor = onnx::Placeholder[name="index_put"](%48074), scope: mmdet3d.models.detectors.centerpoint.CenterPoint::/mmdet3d.models.middle_encoders.sparse_encoder.SparseEncoder::pts_middle_encoder # /home/jing/Workspace/mmdeploy/mmdeploy/pytorch/functions/tensor_setitem.py:26:0
    block0():
      %54298 : Float(1, 2, 50, 150, 128, strides=[1920000, 960000, 19200, 128, 1], requires_grad=0, device=cuda:0) = aten::index_put(%48074, %54125, %48131, %54315), scope: mmdet3d.models.detectors.centerpoint.CenterPoint::/mmdet3d.models.middle_encoders.sparse_encoder.SparseEncoder::pts_middle_encoder # /home/jing/Workspace/mmdeploy/mmdeploy/pytorch/functions/tensor_setitem.py:26:0
      -> (%54298)
  %53761 : int[] = prim::Constant[value=[0, 4, 1, 2, 3]]()
  %48141 : Float(1, 128, 2, 50, 150, strides=[1920000, 1, 960000, 19200, 128], requires_grad=0, device=cuda:0) = aten::permute(%54297, %53761), scope: mmdet3d.models.detectors.centerpoint.CenterPoint::/mmdet3d.models.middle_encoders.sparse_encoder.SparseEncoder::pts_middle_encoder # /home/jing/anaconda3/lib/python3.9/site-packages/mmcv/ops/sparse_structure.py:61:0
  %48143 : Float(1, 128, 2, 50, 150, strides=[1920000, 15000, 7500, 150, 1], requires_grad=0, device=cuda:0) = aten::contiguous(%48141, %54310), scope: mmdet3d.models.detectors.centerpoint.CenterPoint::/mmdet3d.models.middle_encoders.sparse_encoder.SparseEncoder::pts_middle_encoder # /home/jing/anaconda3/lib/python3.9/site-packages/mmcv/ops/sparse_structure.py:61:0
  %48145 : Long(device=cpu) = aten::size(%48143, %54310), scope: mmdet3d.models.detectors.centerpoint.CenterPoint::/mmdet3d.models.middle_encoders.sparse_encoder.SparseEncoder::pts_middle_encoder # /home/jing/Workspace/pointcloud/mmdet3d/models/middle_encoders/sparse_encoder.py:136:0
  %48149 : Long(device=cpu) = aten::size(%48143, %54312), scope: mmdet3d.models.detectors.centerpoint.CenterPoint::/mmdet3d.models.middle_encoders.sparse_encoder.SparseEncoder::pts_middle_encoder # /home/jing/Workspace/pointcloud/mmdet3d/models/middle_encoders/sparse_encoder.py:136:0
  %48152 : Long(device=cpu) = aten::size(%48143, %54313), scope: mmdet3d.models.detectors.centerpoint.CenterPoint::/mmdet3d.models.middle_encoders.sparse_encoder.SparseEncoder::pts_middle_encoder # /home/jing/Workspace/pointcloud/mmdet3d/models/middle_encoders/sparse_encoder.py:136:0
  %48155 : Long(device=cpu) = aten::size(%48143, %54318), scope: mmdet3d.models.detectors.centerpoint.CenterPoint::/mmdet3d.models.middle_encoders.sparse_encoder.SparseEncoder::pts_middle_encoder # /home/jing/Workspace/pointcloud/mmdet3d/models/middle_encoders/sparse_encoder.py:136:0
  %48159 : Long(device=cpu) = aten::size(%48143, %54314), scope: mmdet3d.models.detectors.centerpoint.CenterPoint::/mmdet3d.models.middle_encoders.sparse_encoder.SparseEncoder::pts_middle_encoder # /home/jing/Workspace/pointcloud/mmdet3d/models/middle_encoders/sparse_encoder.py:136:0
  %48162 : Long(requires_grad=0, device=cpu) = aten::mul(%48149, %48152), scope: mmdet3d.models.detectors.centerpoint.CenterPoint::/mmdet3d.models.middle_encoders.sparse_encoder.SparseEncoder::pts_middle_encoder # /home/jing/Workspace/pointcloud/mmdet3d/models/middle_encoders/sparse_encoder.py:137:0
  %48164 : int[] = prim::ListConstruct(%48145, %48162, %48155, %48159), scope: mmdet3d.models.detectors.centerpoint.CenterPoint::/mmdet3d.models.middle_encoders.sparse_encoder.SparseEncoder::pts_middle_encoder
  %input.85 : Float(1, 256, 50, 150, strides=[1920000, 7500, 150, 1], requires_grad=0, device=cuda:0) = aten::view(%48143, %48164), scope: mmdet3d.models.detectors.centerpoint.CenterPoint::/mmdet3d.models.middle_encoders.sparse_encoder.SparseEncoder::pts_middle_encoder # /home/jing/Workspace/pointcloud/mmdet3d/models/middle_encoders/sparse_encoder.py:137:0
  %53762 : int[] = prim::Constant[value=[1, 1]]()
  %53765 : int[] = prim::Constant[value=[0, 0]]()
  %input.87 : Float(1, 128, 50, 150, strides=[960000, 7500, 150, 1], requires_grad=0, device=cuda:0) = aten::_convolution(%input.85, %pts_backbone.blocks.0.0.weight, %42133, %53762, %53762, %53762, %54315, %53765, %54312, %54315, %54315, %54321, %54321), scope: mmdet3d.models.detectors.centerpoint.CenterPoint::/mmdet3d.models.backbones.second.SECOND::pts_backbone/torch.nn.modules.container.Sequential::blocks.0/torch.nn.modules.conv.Conv2d::blocks.0.0 # /home/jing/anaconda3/lib/python3.9/site-packages/torch/nn/modules/conv.py:459:0
  %input.89 : Float(1, 128, 50, 150, strides=[960000, 7500, 150, 1], requires_grad=0, device=cuda:0) = aten::batch_norm(%input.87, %pts_backbone.blocks.0.1.weight, %pts_backbone.blocks.0.1.bias, %pts_backbone.blocks.0.1.running_mean, %pts_backbone.blocks.0.1.running_var, %54315, %54319, %54320, %54321), scope: mmdet3d.models.detectors.centerpoint.CenterPoint::/mmdet3d.models.backbones.second.SECOND::pts_backbone/torch.nn.modules.container.Sequential::blocks.0/torch.nn.modules.batchnorm.BatchNorm2d::blocks.0.1 # /home/jing/anaconda3/lib/python3.9/site-packages/torch/nn/functional.py:2450:0
  %54257 : Float(1, 128, 50, 150, strides=[960000, 7500, 150, 1], requires_grad=0, device=cuda:0) = aten::relu(%input.89), scope: mmdet3d.models.detectors.centerpoint.CenterPoint::/mmdet3d.models.backbones.second.SECOND::pts_backbone/torch.nn.modules.container.Sequential::blocks.0/torch.nn.modules.activation.ReLU::blocks.0.2 # /home/jing/anaconda3/lib/python3.9/site-packages/torch/nn/functional.py:1455:0
  %input.93 : Float(1, 128, 50, 150, strides=[960000, 7500, 150, 1], requires_grad=0, device=cuda:0) = aten::_convolution(%54257, %pts_backbone.blocks.0.3.weight, %42133, %53762, %53762, %53762, %54315, %53765, %54312, %54315, %54315, %54321, %54321), scope: mmdet3d.models.detectors.centerpoint.CenterPoint::/mmdet3d.models.backbones.second.SECOND::pts_backbone/torch.nn.modules.container.Sequential::blocks.0/torch.nn.modules.conv.Conv2d::blocks.0.3 # /home/jing/anaconda3/lib/python3.9/site-packages/torch/nn/modules/conv.py:459:0
  %input.95 : Float(1, 128, 50, 150, strides=[960000, 7500, 150, 1], requires_grad=0, device=cuda:0) = aten::batch_norm(%input.93, %pts_backbone.blocks.0.4.weight, %pts_backbone.blocks.0.4.bias, %pts_backbone.blocks.0.4.running_mean, %pts_backbone.blocks.0.4.running_var, %54315, %54319, %54320, %54321), scope: mmdet3d.models.detectors.centerpoint.CenterPoint::/mmdet3d.models.backbones.second.SECOND::pts_backbone/torch.nn.modules.container.Sequential::blocks.0/torch.nn.modules.batchnorm.BatchNorm2d::blocks.0.4 # /home/jing/anaconda3/lib/python3.9/site-packages/torch/nn/functional.py:2450:0
  %54258 : Float(1, 128, 50, 150, strides=[960000, 7500, 150, 1], requires_grad=0, device=cuda:0) = aten::relu(%input.95), scope: mmdet3d.models.detectors.centerpoint.CenterPoint::/mmdet3d.models.backbones.second.SECOND::pts_backbone/torch.nn.modules.container.Sequential::blocks.0/torch.nn.modules.activation.ReLU::blocks.0.5 # /home/jing/anaconda3/lib/python3.9/site-packages/torch/nn/functional.py:1455:0
  %input.99 : Float(1, 128, 50, 150, strides=[960000, 7500, 150, 1], requires_grad=0, device=cuda:0) = aten::_convolution(%54258, %pts_backbone.blocks.0.6.weight, %42133, %53762, %53762, %53762, %54315, %53765, %54312, %54315, %54315, %54321, %54321), scope: mmdet3d.models.detectors.centerpoint.CenterPoint::/mmdet3d.models.backbones.second.SECOND::pts_backbone/torch.nn.modules.container.Sequential::blocks.0/torch.nn.modules.conv.Conv2d::blocks.0.6 # /home/jing/anaconda3/lib/python3.9/site-packages/torch/nn/modules/conv.py:459:0
  %input.101 : Float(1, 128, 50, 150, strides=[960000, 7500, 150, 1], requires_grad=0, device=cuda:0) = aten::batch_norm(%input.99, %pts_backbone.blocks.0.7.weight, %pts_backbone.blocks.0.7.bias, %pts_backbone.blocks.0.7.running_mean, %pts_backbone.blocks.0.7.running_var, %54315, %54319, %54320, %54321), scope: mmdet3d.models.detectors.centerpoint.CenterPoint::/mmdet3d.models.backbones.second.SECOND::pts_backbone/torch.nn.modules.container.Sequential::blocks.0/torch.nn.modules.batchnorm.BatchNorm2d::blocks.0.7 # /home/jing/anaconda3/lib/python3.9/site-packages/torch/nn/functional.py:2450:0
  %54259 : Float(1, 128, 50, 150, strides=[960000, 7500, 150, 1], requires_grad=0, device=cuda:0) = aten::relu(%input.101), scope: mmdet3d.models.detectors.centerpoint.CenterPoint::/mmdet3d.models.backbones.second.SECOND::pts_backbone/torch.nn.modules.container.Sequential::blocks.0/torch.nn.modules.activation.ReLU::blocks.0.8 # /home/jing/anaconda3/lib/python3.9/site-packages/torch/nn/functional.py:1455:0
  %input.105 : Float(1, 128, 50, 150, strides=[960000, 7500, 150, 1], requires_grad=0, device=cuda:0) = aten::_convolution(%54259, %pts_backbone.blocks.0.9.weight, %42133, %53762, %53762, %53762, %54315, %53765, %54312, %54315, %54315, %54321, %54321), scope: mmdet3d.models.detectors.centerpoint.CenterPoint::/mmdet3d.models.backbones.second.SECOND::pts_backbone/torch.nn.modules.container.Sequential::blocks.0/torch.nn.modules.conv.Conv2d::blocks.0.9 # /home/jing/anaconda3/lib/python3.9/site-packages/torch/nn/modules/conv.py:459:0
  %input.107 : Float(1, 128, 50, 150, strides=[960000, 7500, 150, 1], requires_grad=0, device=cuda:0) = aten::batch_norm(%input.105, %pts_backbone.blocks.0.10.weight, %pts_backbone.blocks.0.10.bias, %pts_backbone.blocks.0.10.running_mean, %pts_backbone.blocks.0.10.running_var, %54315, %54319, %54320, %54321), scope: mmdet3d.models.detectors.centerpoint.CenterPoint::/mmdet3d.models.backbones.second.SECOND::pts_backbone/torch.nn.modules.container.Sequential::blocks.0/torch.nn.modules.batchnorm.BatchNorm2d::blocks.0.10 # /home/jing/anaconda3/lib/python3.9/site-packages/torch/nn/functional.py:2450:0
  %54260 : Float(1, 128, 50, 150, strides=[960000, 7500, 150, 1], requires_grad=0, device=cuda:0) = aten::relu(%input.107), scope: mmdet3d.models.detectors.centerpoint.CenterPoint::/mmdet3d.models.backbones.second.SECOND::pts_backbone/torch.nn.modules.container.Sequential::blocks.0/torch.nn.modules.activation.ReLU::blocks.0.11 # /home/jing/anaconda3/lib/python3.9/site-packages/torch/nn/functional.py:1455:0
  %input.111 : Float(1, 128, 50, 150, strides=[960000, 7500, 150, 1], requires_grad=0, device=cuda:0) = aten::_convolution(%54260, %pts_backbone.blocks.0.12.weight, %42133, %53762, %53762, %53762, %54315, %53765, %54312, %54315, %54315, %54321, %54321), scope: mmdet3d.models.detectors.centerpoint.CenterPoint::/mmdet3d.models.backbones.second.SECOND::pts_backbone/torch.nn.modules.container.Sequential::blocks.0/torch.nn.modules.conv.Conv2d::blocks.0.12 # /home/jing/anaconda3/lib/python3.9/site-packages/torch/nn/modules/conv.py:459:0
  %input.113 : Float(1, 128, 50, 150, strides=[960000, 7500, 150, 1], requires_grad=0, device=cuda:0) = aten::batch_norm(%input.111, %pts_backbone.blocks.0.13.weight, %pts_backbone.blocks.0.13.bias, %pts_backbone.blocks.0.13.running_mean, %pts_backbone.blocks.0.13.running_var, %54315, %54319, %54320, %54321), scope: mmdet3d.models.detectors.centerpoint.CenterPoint::/mmdet3d.models.backbones.second.SECOND::pts_backbone/torch.nn.modules.container.Sequential::blocks.0/torch.nn.modules.batchnorm.BatchNorm2d::blocks.0.13 # /home/jing/anaconda3/lib/python3.9/site-packages/torch/nn/functional.py:2450:0
  %54261 : Float(1, 128, 50, 150, strides=[960000, 7500, 150, 1], requires_grad=0, device=cuda:0) = aten::relu(%input.113), scope: mmdet3d.models.detectors.centerpoint.CenterPoint::/mmdet3d.models.backbones.second.SECOND::pts_backbone/torch.nn.modules.container.Sequential::blocks.0/torch.nn.modules.activation.ReLU::blocks.0.14 # /home/jing/anaconda3/lib/python3.9/site-packages/torch/nn/functional.py:1455:0
  %input.117 : Float(1, 128, 50, 150, strides=[960000, 7500, 150, 1], requires_grad=0, device=cuda:0) = aten::_convolution(%54261, %pts_backbone.blocks.0.15.weight, %42133, %53762, %53762, %53762, %54315, %53765, %54312, %54315, %54315, %54321, %54321), scope: mmdet3d.models.detectors.centerpoint.CenterPoint::/mmdet3d.models.backbones.second.SECOND::pts_backbone/torch.nn.modules.container.Sequential::blocks.0/torch.nn.modules.conv.Conv2d::blocks.0.15 # /home/jing/anaconda3/lib/python3.9/site-packages/torch/nn/modules/conv.py:459:0
  %input.119 : Float(1, 128, 50, 150, strides=[960000, 7500, 150, 1], requires_grad=0, device=cuda:0) = aten::batch_norm(%input.117, %pts_backbone.blocks.0.16.weight, %pts_backbone.blocks.0.16.bias, %pts_backbone.blocks.0.16.running_mean, %pts_backbone.blocks.0.16.running_var, %54315, %54319, %54320, %54321), scope: mmdet3d.models.detectors.centerpoint.CenterPoint::/mmdet3d.models.backbones.second.SECOND::pts_backbone/torch.nn.modules.container.Sequential::blocks.0/torch.nn.modules.batchnorm.BatchNorm2d::blocks.0.16 # /home/jing/anaconda3/lib/python3.9/site-packages/torch/nn/functional.py:2450:0
  %54262 : Float(1, 128, 50, 150, strides=[960000, 7500, 150, 1], requires_grad=0, device=cuda:0) = aten::relu(%input.119), scope: mmdet3d.models.detectors.centerpoint.CenterPoint::/mmdet3d.models.backbones.second.SECOND::pts_backbone/torch.nn.modules.container.Sequential::blocks.0/torch.nn.modules.activation.ReLU::blocks.0.17 # /home/jing/anaconda3/lib/python3.9/site-packages/torch/nn/functional.py:1455:0
  %53786 : int[] = prim::Constant[value=[2, 2]]()
  %input.123 : Float(1, 256, 25, 75, strides=[480000, 1875, 75, 1], requires_grad=0, device=cuda:0) = aten::_convolution(%54262, %pts_backbone.blocks.1.0.weight, %42133, %53786, %53762, %53762, %54315, %53765, %54312, %54315, %54315, %54321, %54321), scope: mmdet3d.models.detectors.centerpoint.CenterPoint::/mmdet3d.models.backbones.second.SECOND::pts_backbone/torch.nn.modules.container.Sequential::blocks.1/torch.nn.modules.conv.Conv2d::blocks.1.0 # /home/jing/anaconda3/lib/python3.9/site-packages/torch/nn/modules/conv.py:459:0
  %input.125 : Float(1, 256, 25, 75, strides=[480000, 1875, 75, 1], requires_grad=0, device=cuda:0) = aten::batch_norm(%input.123, %pts_backbone.blocks.1.1.weight, %pts_backbone.blocks.1.1.bias, %pts_backbone.blocks.1.1.running_mean, %pts_backbone.blocks.1.1.running_var, %54315, %54319, %54320, %54321), scope: mmdet3d.models.detectors.centerpoint.CenterPoint::/mmdet3d.models.backbones.second.SECOND::pts_backbone/torch.nn.modules.container.Sequential::blocks.1/torch.nn.modules.batchnorm.BatchNorm2d::blocks.1.1 # /home/jing/anaconda3/lib/python3.9/site-packages/torch/nn/functional.py:2450:0
  %54263 : Float(1, 256, 25, 75, strides=[480000, 1875, 75, 1], requires_grad=0, device=cuda:0) = aten::relu(%input.125), scope: mmdet3d.models.detectors.centerpoint.CenterPoint::/mmdet3d.models.backbones.second.SECOND::pts_backbone/torch.nn.modules.container.Sequential::blocks.1/torch.nn.modules.activation.ReLU::blocks.1.2 # /home/jing/anaconda3/lib/python3.9/site-packages/torch/nn/functional.py:1455:0
  %input.129 : Float(1, 256, 25, 75, strides=[480000, 1875, 75, 1], requires_grad=0, device=cuda:0) = aten::_convolution(%54263, %pts_backbone.blocks.1.3.weight, %42133, %53762, %53762, %53762, %54315, %53765, %54312, %54315, %54315, %54321, %54321), scope: mmdet3d.models.detectors.centerpoint.CenterPoint::/mmdet3d.models.backbones.second.SECOND::pts_backbone/torch.nn.modules.container.Sequential::blocks.1/torch.nn.modules.conv.Conv2d::blocks.1.3 # /home/jing/anaconda3/lib/python3.9/site-packages/torch/nn/modules/conv.py:459:0
  %input.131 : Float(1, 256, 25, 75, strides=[480000, 1875, 75, 1], requires_grad=0, device=cuda:0) = aten::batch_norm(%input.129, %pts_backbone.blocks.1.4.weight, %pts_backbone.blocks.1.4.bias, %pts_backbone.blocks.1.4.running_mean, %pts_backbone.blocks.1.4.running_var, %54315, %54319, %54320, %54321), scope: mmdet3d.models.detectors.centerpoint.CenterPoint::/mmdet3d.models.backbones.second.SECOND::pts_backbone/torch.nn.modules.container.Sequential::blocks.1/torch.nn.modules.batchnorm.BatchNorm2d::blocks.1.4 # /home/jing/anaconda3/lib/python3.9/site-packages/torch/nn/functional.py:2450:0
  %54264 : Float(1, 256, 25, 75, strides=[480000, 1875, 75, 1], requires_grad=0, device=cuda:0) = aten::relu(%input.131), scope: mmdet3d.models.detectors.centerpoint.CenterPoint::/mmdet3d.models.backbones.second.SECOND::pts_backbone/torch.nn.modules.container.Sequential::blocks.1/torch.nn.modules.activation.ReLU::blocks.1.5 # /home/jing/anaconda3/lib/python3.9/site-packages/torch/nn/functional.py:1455:0
  %input.135 : Float(1, 256, 25, 75, strides=[480000, 1875, 75, 1], requires_grad=0, device=cuda:0) = aten::_convolution(%54264, %pts_backbone.blocks.1.6.weight, %42133, %53762, %53762, %53762, %54315, %53765, %54312, %54315, %54315, %54321, %54321), scope: mmdet3d.models.detectors.centerpoint.CenterPoint::/mmdet3d.models.backbones.second.SECOND::pts_backbone/torch.nn.modules.container.Sequential::blocks.1/torch.nn.modules.conv.Conv2d::blocks.1.6 # /home/jing/anaconda3/lib/python3.9/site-packages/torch/nn/modules/conv.py:459:0
  %input.137 : Float(1, 256, 25, 75, strides=[480000, 1875, 75, 1], requires_grad=0, device=cuda:0) = aten::batch_norm(%input.135, %pts_backbone.blocks.1.7.weight, %pts_backbone.blocks.1.7.bias, %pts_backbone.blocks.1.7.running_mean, %pts_backbone.blocks.1.7.running_var, %54315, %54319, %54320, %54321), scope: mmdet3d.models.detectors.centerpoint.CenterPoint::/mmdet3d.models.backbones.second.SECOND::pts_backbone/torch.nn.modules.container.Sequential::blocks.1/torch.nn.modules.batchnorm.BatchNorm2d::blocks.1.7 # /home/jing/anaconda3/lib/python3.9/site-packages/torch/nn/functional.py:2450:0
  %54265 : Float(1, 256, 25, 75, strides=[480000, 1875, 75, 1], requires_grad=0, device=cuda:0) = aten::relu(%input.137), scope: mmdet3d.models.detectors.centerpoint.CenterPoint::/mmdet3d.models.backbones.second.SECOND::pts_backbone/torch.nn.modules.container.Sequential::blocks.1/torch.nn.modules.activation.ReLU::blocks.1.8 # /home/jing/anaconda3/lib/python3.9/site-packages/torch/nn/functional.py:1455:0
  %input.141 : Float(1, 256, 25, 75, strides=[480000, 1875, 75, 1], requires_grad=0, device=cuda:0) = aten::_convolution(%54265, %pts_backbone.blocks.1.9.weight, %42133, %53762, %53762, %53762, %54315, %53765, %54312, %54315, %54315, %54321, %54321), scope: mmdet3d.models.detectors.centerpoint.CenterPoint::/mmdet3d.models.backbones.second.SECOND::pts_backbone/torch.nn.modules.container.Sequential::blocks.1/torch.nn.modules.conv.Conv2d::blocks.1.9 # /home/jing/anaconda3/lib/python3.9/site-packages/torch/nn/modules/conv.py:459:0
  %input.143 : Float(1, 256, 25, 75, strides=[480000, 1875, 75, 1], requires_grad=0, device=cuda:0) = aten::batch_norm(%input.141, %pts_backbone.blocks.1.10.weight, %pts_backbone.blocks.1.10.bias, %pts_backbone.blocks.1.10.running_mean, %pts_backbone.blocks.1.10.running_var, %54315, %54319, %54320, %54321), scope: mmdet3d.models.detectors.centerpoint.CenterPoint::/mmdet3d.models.backbones.second.SECOND::pts_backbone/torch.nn.modules.container.Sequential::blocks.1/torch.nn.modules.batchnorm.BatchNorm2d::blocks.1.10 # /home/jing/anaconda3/lib/python3.9/site-packages/torch/nn/functional.py:2450:0
  %54266 : Float(1, 256, 25, 75, strides=[480000, 1875, 75, 1], requires_grad=0, device=cuda:0) = aten::relu(%input.143), scope: mmdet3d.models.detectors.centerpoint.CenterPoint::/mmdet3d.models.backbones.second.SECOND::pts_backbone/torch.nn.modules.container.Sequential::blocks.1/torch.nn.modules.activation.ReLU::blocks.1.11 # /home/jing/anaconda3/lib/python3.9/site-packages/torch/nn/functional.py:1455:0
  %input.147 : Float(1, 256, 25, 75, strides=[480000, 1875, 75, 1], requires_grad=0, device=cuda:0) = aten::_convolution(%54266, %pts_backbone.blocks.1.12.weight, %42133, %53762, %53762, %53762, %54315, %53765, %54312, %54315, %54315, %54321, %54321), scope: mmdet3d.models.detectors.centerpoint.CenterPoint::/mmdet3d.models.backbones.second.SECOND::pts_backbone/torch.nn.modules.container.Sequential::blocks.1/torch.nn.modules.conv.Conv2d::blocks.1.12 # /home/jing/anaconda3/lib/python3.9/site-packages/torch/nn/modules/conv.py:459:0
  %input.149 : Float(1, 256, 25, 75, strides=[480000, 1875, 75, 1], requires_grad=0, device=cuda:0) = aten::batch_norm(%input.147, %pts_backbone.blocks.1.13.weight, %pts_backbone.blocks.1.13.bias, %pts_backbone.blocks.1.13.running_mean, %pts_backbone.blocks.1.13.running_var, %54315, %54319, %54320, %54321), scope: mmdet3d.models.detectors.centerpoint.CenterPoint::/mmdet3d.models.backbones.second.SECOND::pts_backbone/torch.nn.modules.container.Sequential::blocks.1/torch.nn.modules.batchnorm.BatchNorm2d::blocks.1.13 # /home/jing/anaconda3/lib/python3.9/site-packages/torch/nn/functional.py:2450:0
  %54267 : Float(1, 256, 25, 75, strides=[480000, 1875, 75, 1], requires_grad=0, device=cuda:0) = aten::relu(%input.149), scope: mmdet3d.models.detectors.centerpoint.CenterPoint::/mmdet3d.models.backbones.second.SECOND::pts_backbone/torch.nn.modules.container.Sequential::blocks.1/torch.nn.modules.activation.ReLU::blocks.1.14 # /home/jing/anaconda3/lib/python3.9/site-packages/torch/nn/functional.py:1455:0
  %input.153 : Float(1, 256, 25, 75, strides=[480000, 1875, 75, 1], requires_grad=0, device=cuda:0) = aten::_convolution(%54267, %pts_backbone.blocks.1.15.weight, %42133, %53762, %53762, %53762, %54315, %53765, %54312, %54315, %54315, %54321, %54321), scope: mmdet3d.models.detectors.centerpoint.CenterPoint::/mmdet3d.models.backbones.second.SECOND::pts_backbone/torch.nn.modules.container.Sequential::blocks.1/torch.nn.modules.conv.Conv2d::blocks.1.15 # /home/jing/anaconda3/lib/python3.9/site-packages/torch/nn/modules/conv.py:459:0
  %input.155 : Float(1, 256, 25, 75, strides=[480000, 1875, 75, 1], requires_grad=0, device=cuda:0) = aten::batch_norm(%input.153, %pts_backbone.blocks.1.16.weight, %pts_backbone.blocks.1.16.bias, %pts_backbone.blocks.1.16.running_mean, %pts_backbone.blocks.1.16.running_var, %54315, %54319, %54320, %54321), scope: mmdet3d.models.detectors.centerpoint.CenterPoint::/mmdet3d.models.backbones.second.SECOND::pts_backbone/torch.nn.modules.container.Sequential::blocks.1/torch.nn.modules.batchnorm.BatchNorm2d::blocks.1.16 # /home/jing/anaconda3/lib/python3.9/site-packages/torch/nn/functional.py:2450:0
  %54268 : Float(1, 256, 25, 75, strides=[480000, 1875, 75, 1], requires_grad=0, device=cuda:0) = aten::relu(%input.155), scope: mmdet3d.models.detectors.centerpoint.CenterPoint::/mmdet3d.models.backbones.second.SECOND::pts_backbone/torch.nn.modules.container.Sequential::blocks.1/torch.nn.modules.activation.ReLU::blocks.1.17 # /home/jing/anaconda3/lib/python3.9/site-packages/torch/nn/functional.py:1455:0
  %input.157 : Float(1, 256, 50, 150, strides=[1920000, 7500, 150, 1], requires_grad=0, device=cuda:0) = aten::_convolution(%54262, %pts_neck.deblocks.0.0.weight, %42133, %53762, %53765, %53762, %54315, %53765, %54312, %54315, %54315, %54321, %54321), scope: mmdet3d.models.detectors.centerpoint.CenterPoint::/mmdet3d.models.necks.second_fpn.SECONDFPN::pts_neck/torch.nn.modules.container.Sequential::deblocks.0/torch.nn.modules.conv.Conv2d::deblocks.0.0 # /home/jing/anaconda3/lib/python3.9/site-packages/torch/nn/modules/conv.py:459:0
  %input.159 : Float(1, 256, 50, 150, strides=[1920000, 7500, 150, 1], requires_grad=0, device=cuda:0) = aten::batch_norm(%input.157, %pts_neck.deblocks.0.1.weight, %pts_neck.deblocks.0.1.bias, %pts_neck.deblocks.0.1.running_mean, %pts_neck.deblocks.0.1.running_var, %54315, %54319, %54320, %54321), scope: mmdet3d.models.detectors.centerpoint.CenterPoint::/mmdet3d.models.necks.second_fpn.SECONDFPN::pts_neck/torch.nn.modules.container.Sequential::deblocks.0/torch.nn.modules.batchnorm.BatchNorm2d::deblocks.0.1 # /home/jing/anaconda3/lib/python3.9/site-packages/torch/nn/functional.py:2450:0
  %54269 : Float(1, 256, 50, 150, strides=[1920000, 7500, 150, 1], requires_grad=0, device=cuda:0) = aten::relu(%input.159), scope: mmdet3d.models.detectors.centerpoint.CenterPoint::/mmdet3d.models.necks.second_fpn.SECONDFPN::pts_neck/torch.nn.modules.container.Sequential::deblocks.0/torch.nn.modules.activation.ReLU::deblocks.0.2 # /home/jing/anaconda3/lib/python3.9/site-packages/torch/nn/functional.py:1455:0
  %input.161 : Float(1, 256, 50, 150, strides=[1920000, 7500, 150, 1], requires_grad=0, device=cuda:0) = aten::_convolution(%54268, %pts_neck.deblocks.1.0.weight, %42133, %53786, %53765, %53762, %54321, %53765, %54312, %54315, %54315, %54321, %54321), scope: mmdet3d.models.detectors.centerpoint.CenterPoint::/mmdet3d.models.necks.second_fpn.SECONDFPN::pts_neck/torch.nn.modules.container.Sequential::deblocks.1/mmcv.cnn.bricks.wrappers.ConvTranspose2d::deblocks.1.0 # /home/jing/anaconda3/lib/python3.9/site-packages/torch/nn/modules/conv.py:956:0
  %input.163 : Float(1, 256, 50, 150, strides=[1920000, 7500, 150, 1], requires_grad=0, device=cuda:0) = aten::batch_norm(%input.161, %pts_neck.deblocks.1.1.weight, %pts_neck.deblocks.1.1.bias, %pts_neck.deblocks.1.1.running_mean, %pts_neck.deblocks.1.1.running_var, %54315, %54319, %54320, %54321), scope: mmdet3d.models.detectors.centerpoint.CenterPoint::/mmdet3d.models.necks.second_fpn.SECONDFPN::pts_neck/torch.nn.modules.container.Sequential::deblocks.1/torch.nn.modules.batchnorm.BatchNorm2d::deblocks.1.1 # /home/jing/anaconda3/lib/python3.9/site-packages/torch/nn/functional.py:2450:0
  %54270 : Float(1, 256, 50, 150, strides=[1920000, 7500, 150, 1], requires_grad=0, device=cuda:0) = aten::relu(%input.163), scope: mmdet3d.models.detectors.centerpoint.CenterPoint::/mmdet3d.models.necks.second_fpn.SECONDFPN::pts_neck/torch.nn.modules.container.Sequential::deblocks.1/torch.nn.modules.activation.ReLU::deblocks.1.2 # /home/jing/anaconda3/lib/python3.9/site-packages/torch/nn/functional.py:1455:0
  %48537 : Tensor[] = prim::ListConstruct(%54269, %54270), scope: mmdet3d.models.detectors.centerpoint.CenterPoint::/mmdet3d.models.necks.second_fpn.SECONDFPN::pts_neck
  %input.165 : Float(1, 512, 50, 150, strides=[3840000, 7500, 150, 1], requires_grad=0, device=cuda:0) = aten::cat(%48537, %54312), scope: mmdet3d.models.detectors.centerpoint.CenterPoint::/mmdet3d.models.necks.second_fpn.SECONDFPN::pts_neck # /home/jing/Workspace/pointcloud/mmdet3d/models/necks/second_fpn.py:88:0
  %input.167 : Float(1, 64, 50, 150, strides=[480000, 7500, 150, 1], requires_grad=0, device=cuda:0) = aten::_convolution(%input.165, %pts_bbox_head.shared_conv.conv.weight, %42133, %53762, %53762, %53762, %54315, %53765, %54312, %54315, %54315, %54321, %54321), scope: mmdet3d.models.detectors.centerpoint.CenterPoint::/mmdet3d.models.dense_heads.centerpoint_head.CenterHead::pts_bbox_head/mmcv.cnn.bricks.conv_module.ConvModule::shared_conv/torch.nn.modules.conv.Conv2d::conv # /home/jing/anaconda3/lib/python3.9/site-packages/torch/nn/modules/conv.py:459:0
  %54326 : Double(device=cpu) = prim::Constant[value={0.1}](), scope: mmdet3d.models.detectors.centerpoint.CenterPoint::/mmdet3d.models.dense_heads.centerpoint_head.CenterHead::pts_bbox_head/mmcv.cnn.bricks.conv_module.ConvModule::shared_conv/torch.nn.modules.batchnorm.BatchNorm2d::bn
  %54327 : Double(device=cpu) = prim::Constant[value={1e-05}](), scope: mmdet3d.models.detectors.centerpoint.CenterPoint::/mmdet3d.models.dense_heads.centerpoint_head.CenterHead::pts_bbox_head/mmcv.cnn.bricks.conv_module.ConvModule::shared_conv/torch.nn.modules.batchnorm.BatchNorm2d::bn
  %input.169 : Float(1, 64, 50, 150, strides=[480000, 7500, 150, 1], requires_grad=0, device=cuda:0) = aten::batch_norm(%input.167, %pts_bbox_head.shared_conv.bn.weight, %pts_bbox_head.shared_conv.bn.bias, %pts_bbox_head.shared_conv.bn.running_mean, %pts_bbox_head.shared_conv.bn.running_var, %54315, %54326, %54327, %54321), scope: mmdet3d.models.detectors.centerpoint.CenterPoint::/mmdet3d.models.dense_heads.centerpoint_head.CenterHead::pts_bbox_head/mmcv.cnn.bricks.conv_module.ConvModule::shared_conv/torch.nn.modules.batchnorm.BatchNorm2d::bn # /home/jing/anaconda3/lib/python3.9/site-packages/torch/nn/functional.py:2450:0
  %54271 : Float(1, 64, 50, 150, strides=[480000, 7500, 150, 1], requires_grad=0, device=cuda:0) = aten::relu(%input.169), scope: mmdet3d.models.detectors.centerpoint.CenterPoint::/mmdet3d.models.dense_heads.centerpoint_head.CenterHead::pts_bbox_head/mmcv.cnn.bricks.conv_module.ConvModule::shared_conv/torch.nn.modules.activation.ReLU::activate # /home/jing/anaconda3/lib/python3.9/site-packages/torch/nn/functional.py:1455:0
  %input.173 : Float(1, 64, 50, 150, strides=[480000, 7500, 150, 1], requires_grad=0, device=cuda:0) = aten::_convolution(%54271, %pts_bbox_head.task_heads.0.reg.0.conv.weight, %42133, %53762, %53762, %53762, %54315, %53765, %54312, %54315, %54315, %54321, %54321), scope: mmdet3d.models.detectors.centerpoint.CenterPoint::/mmdet3d.models.dense_heads.centerpoint_head.CenterHead::pts_bbox_head/mmdet3d.models.dense_heads.centerpoint_head.SeparateHead::task_heads.0/torch.nn.modules.container.Sequential::reg/mmcv.cnn.bricks.conv_module.ConvModule::reg.0/torch.nn.modules.conv.Conv2d::conv # /home/jing/anaconda3/lib/python3.9/site-packages/torch/nn/modules/conv.py:459:0
  %input.175 : Float(1, 64, 50, 150, strides=[480000, 7500, 150, 1], requires_grad=0, device=cuda:0) = aten::batch_norm(%input.173, %pts_bbox_head.task_heads.0.reg.0.bn.weight, %pts_bbox_head.task_heads.0.reg.0.bn.bias, %pts_bbox_head.task_heads.0.reg.0.bn.running_mean, %pts_bbox_head.task_heads.0.reg.0.bn.running_var, %54315, %54326, %54327, %54321), scope: mmdet3d.models.detectors.centerpoint.CenterPoint::/mmdet3d.models.dense_heads.centerpoint_head.CenterHead::pts_bbox_head/mmdet3d.models.dense_heads.centerpoint_head.SeparateHead::task_heads.0/torch.nn.modules.container.Sequential::reg/mmcv.cnn.bricks.conv_module.ConvModule::reg.0/torch.nn.modules.batchnorm.BatchNorm2d::bn # /home/jing/anaconda3/lib/python3.9/site-packages/torch/nn/functional.py:2450:0
  %54272 : Float(1, 64, 50, 150, strides=[480000, 7500, 150, 1], requires_grad=0, device=cuda:0) = aten::relu(%input.175), scope: mmdet3d.models.detectors.centerpoint.CenterPoint::/mmdet3d.models.dense_heads.centerpoint_head.CenterHead::pts_bbox_head/mmdet3d.models.dense_heads.centerpoint_head.SeparateHead::task_heads.0/torch.nn.modules.container.Sequential::reg/mmcv.cnn.bricks.conv_module.ConvModule::reg.0/torch.nn.modules.activation.ReLU::activate # /home/jing/anaconda3/lib/python3.9/site-packages/torch/nn/functional.py:1455:0
  %reg.1 : Float(1, 2, 50, 150, strides=[15000, 7500, 150, 1], requires_grad=0, device=cuda:0) = aten::_convolution(%54272, %pts_bbox_head.task_heads.0.reg.1.weight, %pts_bbox_head.task_heads.0.reg.1.bias, %53762, %53762, %53762, %54315, %53765, %54312, %54315, %54315, %54321, %54321), scope: mmdet3d.models.detectors.centerpoint.CenterPoint::/mmdet3d.models.dense_heads.centerpoint_head.CenterHead::pts_bbox_head/mmdet3d.models.dense_heads.centerpoint_head.SeparateHead::task_heads.0/torch.nn.modules.container.Sequential::reg/torch.nn.modules.conv.Conv2d::reg.1 # /home/jing/anaconda3/lib/python3.9/site-packages/torch/nn/modules/conv.py:459:0
  %input.179 : Float(1, 64, 50, 150, strides=[480000, 7500, 150, 1], requires_grad=0, device=cuda:0) = aten::_convolution(%54271, %pts_bbox_head.task_heads.0.height.0.conv.weight, %42133, %53762, %53762, %53762, %54315, %53765, %54312, %54315, %54315, %54321, %54321), scope: mmdet3d.models.detectors.centerpoint.CenterPoint::/mmdet3d.models.dense_heads.centerpoint_head.CenterHead::pts_bbox_head/mmdet3d.models.dense_heads.centerpoint_head.SeparateHead::task_heads.0/torch.nn.modules.container.Sequential::height/mmcv.cnn.bricks.conv_module.ConvModule::height.0/torch.nn.modules.conv.Conv2d::conv # /home/jing/anaconda3/lib/python3.9/site-packages/torch/nn/modules/conv.py:459:0
  %input.181 : Float(1, 64, 50, 150, strides=[480000, 7500, 150, 1], requires_grad=0, device=cuda:0) = aten::batch_norm(%input.179, %pts_bbox_head.task_heads.0.height.0.bn.weight, %pts_bbox_head.task_heads.0.height.0.bn.bias, %pts_bbox_head.task_heads.0.height.0.bn.running_mean, %pts_bbox_head.task_heads.0.height.0.bn.running_var, %54315, %54326, %54327, %54321), scope: mmdet3d.models.detectors.centerpoint.CenterPoint::/mmdet3d.models.dense_heads.centerpoint_head.CenterHead::pts_bbox_head/mmdet3d.models.dense_heads.centerpoint_head.SeparateHead::task_heads.0/torch.nn.modules.container.Sequential::height/mmcv.cnn.bricks.conv_module.ConvModule::height.0/torch.nn.modules.batchnorm.BatchNorm2d::bn # /home/jing/anaconda3/lib/python3.9/site-packages/torch/nn/functional.py:2450:0
  %54273 : Float(1, 64, 50, 150, strides=[480000, 7500, 150, 1], requires_grad=0, device=cuda:0) = aten::relu(%input.181), scope: mmdet3d.models.detectors.centerpoint.CenterPoint::/mmdet3d.models.dense_heads.centerpoint_head.CenterHead::pts_bbox_head/mmdet3d.models.dense_heads.centerpoint_head.SeparateHead::task_heads.0/torch.nn.modules.container.Sequential::height/mmcv.cnn.bricks.conv_module.ConvModule::height.0/torch.nn.modules.activation.ReLU::activate # /home/jing/anaconda3/lib/python3.9/site-packages/torch/nn/functional.py:1455:0
  %hei.1 : Float(1, 1, 50, 150, strides=[7500, 7500, 150, 1], requires_grad=0, device=cuda:0) = aten::_convolution(%54273, %pts_bbox_head.task_heads.0.height.1.weight, %pts_bbox_head.task_heads.0.height.1.bias, %53762, %53762, %53762, %54315, %53765, %54312, %54315, %54315, %54321, %54321), scope: mmdet3d.models.detectors.centerpoint.CenterPoint::/mmdet3d.models.dense_heads.centerpoint_head.CenterHead::pts_bbox_head/mmdet3d.models.dense_heads.centerpoint_head.SeparateHead::task_heads.0/torch.nn.modules.container.Sequential::height/torch.nn.modules.conv.Conv2d::height.1 # /home/jing/anaconda3/lib/python3.9/site-packages/torch/nn/modules/conv.py:459:0
  %input.185 : Float(1, 64, 50, 150, strides=[480000, 7500, 150, 1], requires_grad=0, device=cuda:0) = aten::_convolution(%54271, %pts_bbox_head.task_heads.0.dim.0.conv.weight, %42133, %53762, %53762, %53762, %54315, %53765, %54312, %54315, %54315, %54321, %54321), scope: mmdet3d.models.detectors.centerpoint.CenterPoint::/mmdet3d.models.dense_heads.centerpoint_head.CenterHead::pts_bbox_head/mmdet3d.models.dense_heads.centerpoint_head.SeparateHead::task_heads.0/torch.nn.modules.container.Sequential::dim/mmcv.cnn.bricks.conv_module.ConvModule::dim.0/torch.nn.modules.conv.Conv2d::conv # /home/jing/anaconda3/lib/python3.9/site-packages/torch/nn/modules/conv.py:459:0
  %input.187 : Float(1, 64, 50, 150, strides=[480000, 7500, 150, 1], requires_grad=0, device=cuda:0) = aten::batch_norm(%input.185, %pts_bbox_head.task_heads.0.dim.0.bn.weight, %pts_bbox_head.task_heads.0.dim.0.bn.bias, %pts_bbox_head.task_heads.0.dim.0.bn.running_mean, %pts_bbox_head.task_heads.0.dim.0.bn.running_var, %54315, %54326, %54327, %54321), scope: mmdet3d.models.detectors.centerpoint.CenterPoint::/mmdet3d.models.dense_heads.centerpoint_head.CenterHead::pts_bbox_head/mmdet3d.models.dense_heads.centerpoint_head.SeparateHead::task_heads.0/torch.nn.modules.container.Sequential::dim/mmcv.cnn.bricks.conv_module.ConvModule::dim.0/torch.nn.modules.batchnorm.BatchNorm2d::bn # /home/jing/anaconda3/lib/python3.9/site-packages/torch/nn/functional.py:2450:0
  %54274 : Float(1, 64, 50, 150, strides=[480000, 7500, 150, 1], requires_grad=0, device=cuda:0) = aten::relu(%input.187), scope: mmdet3d.models.detectors.centerpoint.CenterPoint::/mmdet3d.models.dense_heads.centerpoint_head.CenterHead::pts_bbox_head/mmdet3d.models.dense_heads.centerpoint_head.SeparateHead::task_heads.0/torch.nn.modules.container.Sequential::dim/mmcv.cnn.bricks.conv_module.ConvModule::dim.0/torch.nn.modules.activation.ReLU::activate # /home/jing/anaconda3/lib/python3.9/site-packages/torch/nn/functional.py:1455:0
  %48700 : Float(1, 3, 50, 150, strides=[22500, 7500, 150, 1], requires_grad=0, device=cuda:0) = aten::_convolution(%54274, %pts_bbox_head.task_heads.0.dim.1.weight, %pts_bbox_head.task_heads.0.dim.1.bias, %53762, %53762, %53762, %54315, %53765, %54312, %54315, %54315, %54321, %54321), scope: mmdet3d.models.detectors.centerpoint.CenterPoint::/mmdet3d.models.dense_heads.centerpoint_head.CenterHead::pts_bbox_head/mmdet3d.models.dense_heads.centerpoint_head.SeparateHead::task_heads.0/torch.nn.modules.container.Sequential::dim/torch.nn.modules.conv.Conv2d::dim.1 # /home/jing/anaconda3/lib/python3.9/site-packages/torch/nn/modules/conv.py:459:0
  %input.191 : Float(1, 64, 50, 150, strides=[480000, 7500, 150, 1], requires_grad=0, device=cuda:0) = aten::_convolution(%54271, %pts_bbox_head.task_heads.0.rot.0.conv.weight, %42133, %53762, %53762, %53762, %54315, %53765, %54312, %54315, %54315, %54321, %54321), scope: mmdet3d.models.detectors.centerpoint.CenterPoint::/mmdet3d.models.dense_heads.centerpoint_head.CenterHead::pts_bbox_head/mmdet3d.models.dense_heads.centerpoint_head.SeparateHead::task_heads.0/torch.nn.modules.container.Sequential::rot/mmcv.cnn.bricks.conv_module.ConvModule::rot.0/torch.nn.modules.conv.Conv2d::conv # /home/jing/anaconda3/lib/python3.9/site-packages/torch/nn/modules/conv.py:459:0
  %input.193 : Float(1, 64, 50, 150, strides=[480000, 7500, 150, 1], requires_grad=0, device=cuda:0) = aten::batch_norm(%input.191, %pts_bbox_head.task_heads.0.rot.0.bn.weight, %pts_bbox_head.task_heads.0.rot.0.bn.bias, %pts_bbox_head.task_heads.0.rot.0.bn.running_mean, %pts_bbox_head.task_heads.0.rot.0.bn.running_var, %54315, %54326, %54327, %54321), scope: mmdet3d.models.detectors.centerpoint.CenterPoint::/mmdet3d.models.dense_heads.centerpoint_head.CenterHead::pts_bbox_head/mmdet3d.models.dense_heads.centerpoint_head.SeparateHead::task_heads.0/torch.nn.modules.container.Sequential::rot/mmcv.cnn.bricks.conv_module.ConvModule::rot.0/torch.nn.modules.batchnorm.BatchNorm2d::bn # /home/jing/anaconda3/lib/python3.9/site-packages/torch/nn/functional.py:2450:0
  %54275 : Float(1, 64, 50, 150, strides=[480000, 7500, 150, 1], requires_grad=0, device=cuda:0) = aten::relu(%input.193), scope: mmdet3d.models.detectors.centerpoint.CenterPoint::/mmdet3d.models.dense_heads.centerpoint_head.CenterHead::pts_bbox_head/mmdet3d.models.dense_heads.centerpoint_head.SeparateHead::task_heads.0/torch.nn.modules.container.Sequential::rot/mmcv.cnn.bricks.conv_module.ConvModule::rot.0/torch.nn.modules.activation.ReLU::activate # /home/jing/anaconda3/lib/python3.9/site-packages/torch/nn/functional.py:1455:0
  %48745 : Float(1, 2, 50, 150, strides=[15000, 7500, 150, 1], requires_grad=0, device=cuda:0) = aten::_convolution(%54275, %pts_bbox_head.task_heads.0.rot.1.weight, %pts_bbox_head.task_heads.0.rot.1.bias, %53762, %53762, %53762, %54315, %53765, %54312, %54315, %54315, %54321, %54321), scope: mmdet3d.models.detectors.centerpoint.CenterPoint::/mmdet3d.models.dense_heads.centerpoint_head.CenterHead::pts_bbox_head/mmdet3d.models.dense_heads.centerpoint_head.SeparateHead::task_heads.0/torch.nn.modules.container.Sequential::rot/torch.nn.modules.conv.Conv2d::rot.1 # /home/jing/anaconda3/lib/python3.9/site-packages/torch/nn/modules/conv.py:459:0
  %input.197 : Float(1, 64, 50, 150, strides=[480000, 7500, 150, 1], requires_grad=0, device=cuda:0) = aten::_convolution(%54271, %pts_bbox_head.task_heads.0.heatmap.0.conv.weight, %42133, %53762, %53762, %53762, %54315, %53765, %54312, %54315, %54315, %54321, %54321), scope: mmdet3d.models.detectors.centerpoint.CenterPoint::/mmdet3d.models.dense_heads.centerpoint_head.CenterHead::pts_bbox_head/mmdet3d.models.dense_heads.centerpoint_head.SeparateHead::task_heads.0/torch.nn.modules.container.Sequential::heatmap/mmcv.cnn.bricks.conv_module.ConvModule::heatmap.0/torch.nn.modules.conv.Conv2d::conv # /home/jing/anaconda3/lib/python3.9/site-packages/torch/nn/modules/conv.py:459:0
  %input.199 : Float(1, 64, 50, 150, strides=[480000, 7500, 150, 1], requires_grad=0, device=cuda:0) = aten::batch_norm(%input.197, %pts_bbox_head.task_heads.0.heatmap.0.bn.weight, %pts_bbox_head.task_heads.0.heatmap.0.bn.bias, %pts_bbox_head.task_heads.0.heatmap.0.bn.running_mean, %pts_bbox_head.task_heads.0.heatmap.0.bn.running_var, %54315, %54326, %54327, %54321), scope: mmdet3d.models.detectors.centerpoint.CenterPoint::/mmdet3d.models.dense_heads.centerpoint_head.CenterHead::pts_bbox_head/mmdet3d.models.dense_heads.centerpoint_head.SeparateHead::task_heads.0/torch.nn.modules.container.Sequential::heatmap/mmcv.cnn.bricks.conv_module.ConvModule::heatmap.0/torch.nn.modules.batchnorm.BatchNorm2d::bn # /home/jing/anaconda3/lib/python3.9/site-packages/torch/nn/functional.py:2450:0
  %54276 : Float(1, 64, 50, 150, strides=[480000, 7500, 150, 1], requires_grad=0, device=cuda:0) = aten::relu(%input.199), scope: mmdet3d.models.detectors.centerpoint.CenterPoint::/mmdet3d.models.dense_heads.centerpoint_head.CenterHead::pts_bbox_head/mmdet3d.models.dense_heads.centerpoint_head.SeparateHead::task_heads.0/torch.nn.modules.container.Sequential::heatmap/mmcv.cnn.bricks.conv_module.ConvModule::heatmap.0/torch.nn.modules.activation.ReLU::activate # /home/jing/anaconda3/lib/python3.9/site-packages/torch/nn/functional.py:1455:0
  %48790 : Float(1, 1, 50, 150, strides=[7500, 7500, 150, 1], requires_grad=0, device=cuda:0) = aten::_convolution(%54276, %pts_bbox_head.task_heads.0.heatmap.1.weight, %pts_bbox_head.task_heads.0.heatmap.1.bias, %53762, %53762, %53762, %54315, %53765, %54312, %54315, %54315, %54321, %54321), scope: mmdet3d.models.detectors.centerpoint.CenterPoint::/mmdet3d.models.dense_heads.centerpoint_head.CenterHead::pts_bbox_head/mmdet3d.models.dense_heads.centerpoint_head.SeparateHead::task_heads.0/torch.nn.modules.container.Sequential::heatmap/torch.nn.modules.conv.Conv2d::heatmap.1 # /home/jing/anaconda3/lib/python3.9/site-packages/torch/nn/modules/conv.py:459:0
  %input.203 : Float(1, 64, 50, 150, strides=[480000, 7500, 150, 1], requires_grad=0, device=cuda:0) = aten::_convolution(%54271, %pts_bbox_head.task_heads.1.reg.0.conv.weight, %42133, %53762, %53762, %53762, %54315, %53765, %54312, %54315, %54315, %54321, %54321), scope: mmdet3d.models.detectors.centerpoint.CenterPoint::/mmdet3d.models.dense_heads.centerpoint_head.CenterHead::pts_bbox_head/mmdet3d.models.dense_heads.centerpoint_head.SeparateHead::task_heads.1/torch.nn.modules.container.Sequential::reg/mmcv.cnn.bricks.conv_module.ConvModule::reg.0/torch.nn.modules.conv.Conv2d::conv # /home/jing/anaconda3/lib/python3.9/site-packages/torch/nn/modules/conv.py:459:0
  %input.205 : Float(1, 64, 50, 150, strides=[480000, 7500, 150, 1], requires_grad=0, device=cuda:0) = aten::batch_norm(%input.203, %pts_bbox_head.task_heads.1.reg.0.bn.weight, %pts_bbox_head.task_heads.1.reg.0.bn.bias, %pts_bbox_head.task_heads.1.reg.0.bn.running_mean, %pts_bbox_head.task_heads.1.reg.0.bn.running_var, %54315, %54326, %54327, %54321), scope: mmdet3d.models.detectors.centerpoint.CenterPoint::/mmdet3d.models.dense_heads.centerpoint_head.CenterHead::pts_bbox_head/mmdet3d.models.dense_heads.centerpoint_head.SeparateHead::task_heads.1/torch.nn.modules.container.Sequential::reg/mmcv.cnn.bricks.conv_module.ConvModule::reg.0/torch.nn.modules.batchnorm.BatchNorm2d::bn # /home/jing/anaconda3/lib/python3.9/site-packages/torch/nn/functional.py:2450:0
  %54277 : Float(1, 64, 50, 150, strides=[480000, 7500, 150, 1], requires_grad=0, device=cuda:0) = aten::relu(%input.205), scope: mmdet3d.models.detectors.centerpoint.CenterPoint::/mmdet3d.models.dense_heads.centerpoint_head.CenterHead::pts_bbox_head/mmdet3d.models.dense_heads.centerpoint_head.SeparateHead::task_heads.1/torch.nn.modules.container.Sequential::reg/mmcv.cnn.bricks.conv_module.ConvModule::reg.0/torch.nn.modules.activation.ReLU::activate # /home/jing/anaconda3/lib/python3.9/site-packages/torch/nn/functional.py:1455:0
  %reg.3 : Float(1, 2, 50, 150, strides=[15000, 7500, 150, 1], requires_grad=0, device=cuda:0) = aten::_convolution(%54277, %pts_bbox_head.task_heads.1.reg.1.weight, %pts_bbox_head.task_heads.1.reg.1.bias, %53762, %53762, %53762, %54315, %53765, %54312, %54315, %54315, %54321, %54321), scope: mmdet3d.models.detectors.centerpoint.CenterPoint::/mmdet3d.models.dense_heads.centerpoint_head.CenterHead::pts_bbox_head/mmdet3d.models.dense_heads.centerpoint_head.SeparateHead::task_heads.1/torch.nn.modules.container.Sequential::reg/torch.nn.modules.conv.Conv2d::reg.1 # /home/jing/anaconda3/lib/python3.9/site-packages/torch/nn/modules/conv.py:459:0
  %input.209 : Float(1, 64, 50, 150, strides=[480000, 7500, 150, 1], requires_grad=0, device=cuda:0) = aten::_convolution(%54271, %pts_bbox_head.task_heads.1.height.0.conv.weight, %42133, %53762, %53762, %53762, %54315, %53765, %54312, %54315, %54315, %54321, %54321), scope: mmdet3d.models.detectors.centerpoint.CenterPoint::/mmdet3d.models.dense_heads.centerpoint_head.CenterHead::pts_bbox_head/mmdet3d.models.dense_heads.centerpoint_head.SeparateHead::task_heads.1/torch.nn.modules.container.Sequential::height/mmcv.cnn.bricks.conv_module.ConvModule::height.0/torch.nn.modules.conv.Conv2d::conv # /home/jing/anaconda3/lib/python3.9/site-packages/torch/nn/modules/conv.py:459:0
  %input.211 : Float(1, 64, 50, 150, strides=[480000, 7500, 150, 1], requires_grad=0, device=cuda:0) = aten::batch_norm(%input.209, %pts_bbox_head.task_heads.1.height.0.bn.weight, %pts_bbox_head.task_heads.1.height.0.bn.bias, %pts_bbox_head.task_heads.1.height.0.bn.running_mean, %pts_bbox_head.task_heads.1.height.0.bn.running_var, %54315, %54326, %54327, %54321), scope: mmdet3d.models.detectors.centerpoint.CenterPoint::/mmdet3d.models.dense_heads.centerpoint_head.CenterHead::pts_bbox_head/mmdet3d.models.dense_heads.centerpoint_head.SeparateHead::task_heads.1/torch.nn.modules.container.Sequential::height/mmcv.cnn.bricks.conv_module.ConvModule::height.0/torch.nn.modules.batchnorm.BatchNorm2d::bn # /home/jing/anaconda3/lib/python3.9/site-packages/torch/nn/functional.py:2450:0
  %54278 : Float(1, 64, 50, 150, strides=[480000, 7500, 150, 1], requires_grad=0, device=cuda:0) = aten::relu(%input.211), scope: mmdet3d.models.detectors.centerpoint.CenterPoint::/mmdet3d.models.dense_heads.centerpoint_head.CenterHead::pts_bbox_head/mmdet3d.models.dense_heads.centerpoint_head.SeparateHead::task_heads.1/torch.nn.modules.container.Sequential::height/mmcv.cnn.bricks.conv_module.ConvModule::height.0/torch.nn.modules.activation.ReLU::activate # /home/jing/anaconda3/lib/python3.9/site-packages/torch/nn/functional.py:1455:0
  %hei.3 : Float(1, 1, 50, 150, strides=[7500, 7500, 150, 1], requires_grad=0, device=cuda:0) = aten::_convolution(%54278, %pts_bbox_head.task_heads.1.height.1.weight, %pts_bbox_head.task_heads.1.height.1.bias, %53762, %53762, %53762, %54315, %53765, %54312, %54315, %54315, %54321, %54321), scope: mmdet3d.models.detectors.centerpoint.CenterPoint::/mmdet3d.models.dense_heads.centerpoint_head.CenterHead::pts_bbox_head/mmdet3d.models.dense_heads.centerpoint_head.SeparateHead::task_heads.1/torch.nn.modules.container.Sequential::height/torch.nn.modules.conv.Conv2d::height.1 # /home/jing/anaconda3/lib/python3.9/site-packages/torch/nn/modules/conv.py:459:0
  %input.215 : Float(1, 64, 50, 150, strides=[480000, 7500, 150, 1], requires_grad=0, device=cuda:0) = aten::_convolution(%54271, %pts_bbox_head.task_heads.1.dim.0.conv.weight, %42133, %53762, %53762, %53762, %54315, %53765, %54312, %54315, %54315, %54321, %54321), scope: mmdet3d.models.detectors.centerpoint.CenterPoint::/mmdet3d.models.dense_heads.centerpoint_head.CenterHead::pts_bbox_head/mmdet3d.models.dense_heads.centerpoint_head.SeparateHead::task_heads.1/torch.nn.modules.container.Sequential::dim/mmcv.cnn.bricks.conv_module.ConvModule::dim.0/torch.nn.modules.conv.Conv2d::conv # /home/jing/anaconda3/lib/python3.9/site-packages/torch/nn/modules/conv.py:45…
  %52758 : Float(1, 83, 6, strides=[498, 6, 1], requires_grad=0, device=cuda:0) = aten::slice(%53584, %54310, %54310, %54311, %54312), scope: mmdet3d.models.detectors.centerpoint.CenterPoint:: # /home/jing/Workspace/mmdeploy/mmdeploy/codebase/mmdet3d/core/post_processing/box3d_nms.py:114:0
  %52763 : Float(1, 83, 6, strides=[498, 6, 1], requires_grad=0, device=cuda:0) = aten::slice(%52758, %54312, %54310, %54311, %54312), scope: mmdet3d.models.detectors.centerpoint.CenterPoint:: # /home/jing/Workspace/mmdeploy/mmdeploy/codebase/mmdet3d/core/post_processing/box3d_nms.py:114:0
  %52766 : Float(1, 83, strides=[498, 6], requires_grad=0, device=cuda:0) = aten::select(%52763, %54313, %54316), scope: mmdet3d.models.detectors.centerpoint.CenterPoint:: # /home/jing/Workspace/mmdeploy/mmdeploy/codebase/mmdet3d/core/post_processing/box3d_nms.py:114:0
  %52771 : Long(1, 500, strides=[500, 1], requires_grad=0, device=cuda:0) = aten::slice(%52646, %54310, %54310, %54311, %54312), scope: mmdet3d.models.detectors.centerpoint.CenterPoint:: # /home/jing/Workspace/mmdeploy/mmdeploy/codebase/mmdet3d/core/post_processing/box3d_nms.py:121:0
  %52774 : Long(1, 83, strides=[83, 1], requires_grad=0, device=cuda:0) = aten::index(%52771, %52752), scope: mmdet3d.models.detectors.centerpoint.CenterPoint:: # /home/jing/Workspace/mmdeploy/mmdeploy/codebase/mmdet3d/core/post_processing/box3d_nms.py:121:0
  %heat : Float(1, 1, 50, 150, strides=[7500, 7500, 150, 1], requires_grad=0, device=cuda:0) = aten::sigmoid(%49714), scope: mmdet3d.models.detectors.centerpoint.CenterPoint:: # /home/jing/Workspace/mmdeploy/mmdeploy/codebase/mmdet3d/models/centerpoint.py:76:0
  %dim : Float(1, 3, 50, 150, strides=[22500, 7500, 150, 1], requires_grad=0, device=cuda:0) = aten::exp(%49624), scope: mmdet3d.models.detectors.centerpoint.CenterPoint:: # /home/jing/Workspace/mmdeploy/mmdeploy/codebase/mmdet3d/models/centerpoint.py:82:0
  %52781 : Float(1, 2, 50, 150, strides=[15000, 7500, 150, 1], requires_grad=0, device=cuda:0) = aten::slice(%49669, %54310, %54310, %54311, %54312), scope: mmdet3d.models.detectors.centerpoint.CenterPoint:: # /home/jing/Workspace/mmdeploy/mmdeploy/codebase/mmdet3d/models/centerpoint.py:86:0
  %52784 : Float(1, 50, 150, strides=[15000, 150, 1], requires_grad=0, device=cuda:0) = aten::select(%52781, %54312, %54310), scope: mmdet3d.models.detectors.centerpoint.CenterPoint:: # /home/jing/Workspace/mmdeploy/mmdeploy/codebase/mmdet3d/models/centerpoint.py:86:0
  %rot_sine : Float(1, 1, 50, 150, strides=[15000, 7500, 150, 1], requires_grad=0, device=cuda:0) = aten::unsqueeze(%52784, %54312), scope: mmdet3d.models.detectors.centerpoint.CenterPoint:: # /home/jing/Workspace/mmdeploy/mmdeploy/codebase/mmdet3d/models/centerpoint.py:86:0
  %52794 : Float(1, 50, 150, strides=[15000, 150, 1], requires_grad=0, device=cuda:0) = aten::select(%52781, %54312, %54312), scope: mmdet3d.models.detectors.centerpoint.CenterPoint:: # /home/jing/Workspace/mmdeploy/mmdeploy/codebase/mmdet3d/models/centerpoint.py:87:0
  %rot_cosine : Float(1, 1, 50, 150, strides=[15000, 7500, 150, 1], requires_grad=0, device=cuda:0) = aten::unsqueeze(%52794, %54312), scope: mmdet3d.models.detectors.centerpoint.CenterPoint:: # /home/jing/Workspace/mmdeploy/mmdeploy/codebase/mmdet3d/models/centerpoint.py:87:0
  %52798 : Long(device=cpu) = aten::size(%heat, %54310), scope: mmdet3d.models.detectors.centerpoint.CenterPoint:: # /home/jing/Workspace/mmdeploy/mmdeploy/codebase/mmdet3d/core/bbox/centerpoint_bbox_coders.py:40:0
  %52832 : Long(device=cpu) = aten::size(%heat, %54312), scope: mmdet3d.models.detectors.centerpoint.CenterPoint:: # /home/jing/Workspace/pointcloud/mmdet3d/core/bbox/coders/centerpoint_bbox_coders.py:78:0
  %52836 : Long(device=cpu) = aten::size(%heat, %54313), scope: mmdet3d.models.detectors.centerpoint.CenterPoint:: # /home/jing/Workspace/pointcloud/mmdet3d/core/bbox/coders/centerpoint_bbox_coders.py:78:0
  %52839 : Long(device=cpu) = aten::size(%heat, %54318), scope: mmdet3d.models.detectors.centerpoint.CenterPoint:: # /home/jing/Workspace/pointcloud/mmdet3d/core/bbox/coders/centerpoint_bbox_coders.py:78:0
  %52842 : int[] = prim::ListConstruct(%52798, %52832, %54316), scope: mmdet3d.models.detectors.centerpoint.CenterPoint::
  %52843 : Float(1, 1, 7500, strides=[7500, 7500, 1], requires_grad=0, device=cuda:0) = aten::view(%heat, %52842), scope: mmdet3d.models.detectors.centerpoint.CenterPoint:: # /home/jing/Workspace/pointcloud/mmdet3d/core/bbox/coders/centerpoint_bbox_coders.py:80:0
  %52859 : Float(1, 1, 500, strides=[500, 500, 1], requires_grad=0, device=cuda:0), %52860 : Long(1, 1, 500, strides=[500, 500, 1], requires_grad=0, device=cuda:0) = aten::topk(%52843, %54328, %54313, %54321, %54321), scope: mmdet3d.models.detectors.centerpoint.CenterPoint:: # /home/jing/Workspace/mmdeploy/mmdeploy/pytorch/functions/topk.py:70:0
  %52861 : Long(requires_grad=0, device=cpu) = aten::mul(%52836, %52839), scope: mmdet3d.models.detectors.centerpoint.CenterPoint:: # /home/jing/Workspace/pointcloud/mmdet3d/core/bbox/coders/centerpoint_bbox_coders.py:82:0
  %52862 : Long(1, 1, 500, strides=[500, 500, 1], requires_grad=0, device=cuda:0) = aten::floor_divide(%52860, %52861), scope: mmdet3d.models.detectors.centerpoint.CenterPoint:: # /home/jing/anaconda3/lib/python3.9/site-packages/torch/_tensor.py:868:0
  %52863 : Long(1, 1, 500, strides=[500, 500, 1], requires_grad=0, device=cuda:0) = aten::mul(%52862, %52861), scope: mmdet3d.models.detectors.centerpoint.CenterPoint:: # /home/jing/Workspace/mmdeploy/mmdeploy/pytorch/functions/mod.py:19:0
  %52865 : Long(1, 1, 500, strides=[500, 500, 1], requires_grad=0, device=cuda:0) = aten::sub(%52860, %52863, %54312), scope: mmdet3d.models.detectors.centerpoint.CenterPoint:: # /home/jing/Workspace/mmdeploy/mmdeploy/pytorch/functions/mod.py:19:0
  %52870 : Float(1, 1, 500, strides=[500, 500, 1], requires_grad=0, device=cuda:0) = aten::to(%52865, %54324, %54315, %54315, %42133), scope: mmdet3d.models.detectors.centerpoint.CenterPoint:: # /home/jing/Workspace/pointcloud/mmdet3d/core/bbox/coders/centerpoint_bbox_coders.py:83:0
  %52871 : Long(requires_grad=0, device=cpu) = aten::detach(%52839), scope: mmdet3d.models.detectors.centerpoint.CenterPoint:: # /home/jing/Workspace/pointcloud/mmdet3d/core/bbox/coders/centerpoint_bbox_coders.py:84:0
  %52877 : Float(requires_grad=0, device=cpu) = aten::to(%52871, %49844, %54324, %54315, %54321, %42133), scope: mmdet3d.models.detectors.centerpoint.CenterPoint:: # /home/jing/Workspace/pointcloud/mmdet3d/core/bbox/coders/centerpoint_bbox_coders.py:84:0
  %52878 : Float(requires_grad=0, device=cpu) = aten::detach(%52877), scope: mmdet3d.models.detectors.centerpoint.CenterPoint:: # /home/jing/Workspace/pointcloud/mmdet3d/core/bbox/coders/centerpoint_bbox_coders.py:84:0
  %52879 : Float(1, 1, 500, strides=[500, 500, 1], requires_grad=0, device=cuda:0) = aten::div(%52870, %52878), scope: mmdet3d.models.detectors.centerpoint.CenterPoint:: # /home/jing/Workspace/pointcloud/mmdet3d/core/bbox/coders/centerpoint_bbox_coders.py:83:0
  %52884 : Int(1, 1, 500, strides=[500, 500, 1], requires_grad=0, device=cuda:0) = aten::to(%52879, %54318, %54315, %54315, %42133), scope: mmdet3d.models.detectors.centerpoint.CenterPoint:: # /home/jing/Workspace/pointcloud/mmdet3d/core/bbox/coders/centerpoint_bbox_coders.py:83:0
  %52889 : Float(1, 1, 500, strides=[500, 500, 1], requires_grad=0, device=cuda:0) = aten::to(%52884, %54324, %54315, %54315, %42133), scope: mmdet3d.models.detectors.centerpoint.CenterPoint:: # /home/jing/Workspace/pointcloud/mmdet3d/core/bbox/coders/centerpoint_bbox_coders.py:83:0
  %52890 : Long(1, 1, 500, strides=[500, 500, 1], requires_grad=0, device=cuda:0) = aten::floor_divide(%52865, %52839), scope: mmdet3d.models.detectors.centerpoint.CenterPoint:: # /home/jing/anaconda3/lib/python3.9/site-packages/torch/_tensor.py:868:0
  %52891 : Long(1, 1, 500, strides=[500, 500, 1], requires_grad=0, device=cuda:0) = aten::mul(%52890, %52839), scope: mmdet3d.models.detectors.centerpoint.CenterPoint:: # /home/jing/Workspace/mmdeploy/mmdeploy/pytorch/functions/mod.py:19:0
  %52893 : Long(1, 1, 500, strides=[500, 500, 1], requires_grad=0, device=cuda:0) = aten::sub(%52865, %52891, %54312), scope: mmdet3d.models.detectors.centerpoint.CenterPoint:: # /home/jing/Workspace/mmdeploy/mmdeploy/pytorch/functions/mod.py:19:0
  %52898 : Int(1, 1, 500, strides=[500, 500, 1], requires_grad=0, device=cuda:0) = aten::to(%52893, %54318, %54315, %54315, %42133), scope: mmdet3d.models.detectors.centerpoint.CenterPoint:: # /home/jing/Workspace/pointcloud/mmdet3d/core/bbox/coders/centerpoint_bbox_coders.py:85:0
  %52903 : Float(1, 1, 500, strides=[500, 500, 1], requires_grad=0, device=cuda:0) = aten::to(%52898, %54324, %54315, %54315, %42133), scope: mmdet3d.models.detectors.centerpoint.CenterPoint:: # /home/jing/Workspace/pointcloud/mmdet3d/core/bbox/coders/centerpoint_bbox_coders.py:85:0
  %52905 : int[] = prim::ListConstruct(%52798, %54316), scope: mmdet3d.models.detectors.centerpoint.CenterPoint::
  %52906 : Float(1, 500, strides=[500, 1], requires_grad=0, device=cuda:0) = aten::view(%52859, %52905), scope: mmdet3d.models.detectors.centerpoint.CenterPoint:: # /home/jing/Workspace/pointcloud/mmdet3d/core/bbox/coders/centerpoint_bbox_coders.py:87:0
  %52919 : Float(1, 500, strides=[500, 1], requires_grad=0, device=cuda:0), %topk_ind : Long(1, 500, strides=[500, 1], requires_grad=0, device=cuda:0) = aten::topk(%52906, %54328, %54312, %54321, %54321), scope: mmdet3d.models.detectors.centerpoint.CenterPoint:: # /home/jing/Workspace/mmdeploy/mmdeploy/pytorch/functions/topk.py:70:0
  %54358 : Double(device=cpu) = prim::Constant[value={500}]()
  %54213 : Float(1, 500, strides=[500, 1], requires_grad=0, device=cuda:0) = aten::div(%topk_ind, %54358), scope: mmdet3d.models.detectors.centerpoint.CenterPoint:: # /home/jing/Workspace/pointcloud/mmdet3d/core/bbox/coders/centerpoint_bbox_coders.py:88:0
  %52934 : Int(1, 500, strides=[500, 1], requires_grad=0, device=cuda:0) = aten::to(%54213, %54318, %54315, %54315, %42133), scope: mmdet3d.models.detectors.centerpoint.CenterPoint:: # /home/jing/Workspace/pointcloud/mmdet3d/core/bbox/coders/centerpoint_bbox_coders.py:88:0
  %52937 : int[] = prim::ListConstruct(%52798, %54316, %54312), scope: mmdet3d.models.detectors.centerpoint.CenterPoint::
  %52938 : Long(1, 500, 1, strides=[500, 1, 1], requires_grad=0, device=cuda:0) = aten::view(%52865, %52937), scope: mmdet3d.models.detectors.centerpoint.CenterPoint:: # /home/jing/Workspace/pointcloud/mmdet3d/core/bbox/coders/centerpoint_bbox_coders.py:89:0
  %52940 : Long(device=cpu) = aten::size(%52938, %54313), scope: mmdet3d.models.detectors.centerpoint.CenterPoint:: # /home/jing/Workspace/pointcloud/mmdet3d/core/bbox/coders/centerpoint_bbox_coders.py:54:0
  %52944 : Long(1, 500, 1, strides=[500, 1, 1], requires_grad=0, device=cuda:0) = aten::unsqueeze(%topk_ind, %54313), scope: mmdet3d.models.detectors.centerpoint.CenterPoint:: # /home/jing/Workspace/pointcloud/mmdet3d/core/bbox/coders/centerpoint_bbox_coders.py:55:0
  %52946 : Long(device=cpu) = aten::size(%topk_ind, %54310), scope: mmdet3d.models.detectors.centerpoint.CenterPoint:: # /home/jing/Workspace/pointcloud/mmdet3d/core/bbox/coders/centerpoint_bbox_coders.py:55:0
  %52950 : Long(device=cpu) = aten::size(%topk_ind, %54312), scope: mmdet3d.models.detectors.centerpoint.CenterPoint:: # /home/jing/Workspace/pointcloud/mmdet3d/core/bbox/coders/centerpoint_bbox_coders.py:55:0
  %52953 : int[] = prim::ListConstruct(%52946, %52950, %52940), scope: mmdet3d.models.detectors.centerpoint.CenterPoint::
  %52955 : Long(1, 500, 1, strides=[500, 1, 1], requires_grad=0, device=cuda:0) = aten::expand(%52944, %52953, %54315), scope: mmdet3d.models.detectors.centerpoint.CenterPoint:: # /home/jing/Workspace/pointcloud/mmdet3d/core/bbox/coders/centerpoint_bbox_coders.py:55:0
  %52958 : Long(1, 500, 1, strides=[500, 1, 1], requires_grad=0, device=cuda:0) = aten::gather(%52938, %54312, %52955, %54315), scope: mmdet3d.models.detectors.centerpoint.CenterPoint:: # /home/jing/Workspace/pointcloud/mmdet3d/core/bbox/coders/centerpoint_bbox_coders.py:56:0
  %52960 : int[] = prim::ListConstruct(%52798, %54328), scope: mmdet3d.models.detectors.centerpoint.CenterPoint::
  %ind : Long(1, 500, strides=[500, 1], requires_grad=0, device=cuda:0) = aten::view(%52958, %52960), scope: mmdet3d.models.detectors.centerpoint.CenterPoint:: # /home/jing/Workspace/pointcloud/mmdet3d/core/bbox/coders/centerpoint_bbox_coders.py:89:0
  %52965 : Float(1, 500, 1, strides=[500, 1, 1], requires_grad=0, device=cuda:0) = aten::view(%52889, %52937), scope: mmdet3d.models.detectors.centerpoint.CenterPoint:: # /home/jing/Workspace/pointcloud/mmdet3d/core/bbox/coders/centerpoint_bbox_coders.py:91:0
  %52967 : Long(device=cpu) = aten::size(%52965, %54313), scope: mmdet3d.models.detectors.centerpoint.CenterPoint:: # /home/jing/Workspace/pointcloud/mmdet3d/core/bbox/coders/centerpoint_bbox_coders.py:54:0
  %52980 : int[] = prim::ListConstruct(%52946, %52950, %52967), scope: mmdet3d.models.detectors.centerpoint.CenterPoint::
  %52982 : Long(1, 500, 1, strides=[500, 1, 1], requires_grad=0, device=cuda:0) = aten::expand(%52944, %52980, %54315), scope: mmdet3d.models.detectors.centerpoint.CenterPoint:: # /home/jing/Workspace/pointcloud/mmdet3d/core/bbox/coders/centerpoint_bbox_coders.py:55:0
  %52985 : Float(1, 500, 1, strides=[500, 1, 1], requires_grad=0, device=cuda:0) = aten::gather(%52965, %54312, %52982, %54315), scope: mmdet3d.models.detectors.centerpoint.CenterPoint:: # /home/jing/Workspace/pointcloud/mmdet3d/core/bbox/coders/centerpoint_bbox_coders.py:56:0
  %52988 : Float(1, 500, strides=[500, 1], requires_grad=0, device=cuda:0) = aten::view(%52985, %52960), scope: mmdet3d.models.detectors.centerpoint.CenterPoint:: # /home/jing/Workspace/pointcloud/mmdet3d/core/bbox/coders/centerpoint_bbox_coders.py:91:0
  %52992 : Float(1, 500, 1, strides=[500, 1, 1], requires_grad=0, device=cuda:0) = aten::view(%52903, %52937), scope: mmdet3d.models.detectors.centerpoint.CenterPoint:: # /home/jing/Workspace/pointcloud/mmdet3d/core/bbox/coders/centerpoint_bbox_coders.py:93:0
  %52994 : Long(device=cpu) = aten::size(%52992, %54313), scope: mmdet3d.models.detectors.centerpoint.CenterPoint:: # /home/jing/Workspace/pointcloud/mmdet3d/core/bbox/coders/centerpoint_bbox_coders.py:54:0
  %53007 : int[] = prim::ListConstruct(%52946, %52950, %52994), scope: mmdet3d.models.detectors.centerpoint.CenterPoint::
  %53009 : Long(1, 500, 1, strides=[500, 1, 1], requires_grad=0, device=cuda:0) = aten::expand(%52944, %53007, %54315), scope: mmdet3d.models.detectors.centerpoint.CenterPoint:: # /home/jing/Workspace/pointcloud/mmdet3d/core/bbox/coders/centerpoint_bbox_coders.py:55:0
  %53012 : Float(1, 500, 1, strides=[500, 1, 1], requires_grad=0, device=cuda:0) = aten::gather(%52992, %54312, %53009, %54315), scope: mmdet3d.models.detectors.centerpoint.CenterPoint:: # /home/jing/Workspace/pointcloud/mmdet3d/core/bbox/coders/centerpoint_bbox_coders.py:56:0
  %53015 : Float(1, 500, strides=[500, 1], requires_grad=0, device=cuda:0) = aten::view(%53012, %52960), scope: mmdet3d.models.detectors.centerpoint.CenterPoint:: # /home/jing/Workspace/pointcloud/mmdet3d/core/bbox/coders/centerpoint_bbox_coders.py:93:0
  %53021 : Float(1, 50, 150, 2, strides=[15000, 150, 1, 7500], requires_grad=0, device=cuda:0) = aten::permute(%reg, %54024), scope: mmdet3d.models.detectors.centerpoint.CenterPoint:: # /home/jing/Workspace/pointcloud/mmdet3d/core/bbox/coders/centerpoint_bbox_coders.py:109:0
  %53023 : Float(1, 50, 150, 2, strides=[15000, 300, 2, 1], requires_grad=0, device=cuda:0) = aten::contiguous(%53021, %54310), scope: mmdet3d.models.detectors.centerpoint.CenterPoint:: # /home/jing/Workspace/pointcloud/mmdet3d/core/bbox/coders/centerpoint_bbox_coders.py:109:0
  %53025 : Long(device=cpu) = aten::size(%53023, %54310), scope: mmdet3d.models.detectors.centerpoint.CenterPoint:: # /home/jing/Workspace/pointcloud/mmdet3d/core/bbox/coders/centerpoint_bbox_coders.py:110:0
  %53029 : Long(device=cpu) = aten::size(%53023, %54318), scope: mmdet3d.models.detectors.centerpoint.CenterPoint:: # /home/jing/Workspace/pointcloud/mmdet3d/core/bbox/coders/centerpoint_bbox_coders.py:110:0
  %53033 : int[] = prim::ListConstruct(%53025, %54316, %53029), scope: mmdet3d.models.detectors.centerpoint.CenterPoint::
  %feat.41 : Float(1, 7500, 2, strides=[15000, 2, 1], requires_grad=0, device=cuda:0) = aten::view(%53023, %53033), scope: mmdet3d.models.detectors.centerpoint.CenterPoint:: # /home/jing/Workspace/pointcloud/mmdet3d/core/bbox/coders/centerpoint_bbox_coders.py:110:0
  %53036 : Long(device=cpu) = aten::size(%feat.41, %54313), scope: mmdet3d.models.detectors.centerpoint.CenterPoint:: # /home/jing/Workspace/pointcloud/mmdet3d/core/bbox/coders/centerpoint_bbox_coders.py:54:0
  %53040 : Long(1, 500, 1, strides=[500, 1, 1], requires_grad=0, device=cuda:0) = aten::unsqueeze(%ind, %54313), scope: mmdet3d.models.detectors.centerpoint.CenterPoint:: # /home/jing/Workspace/pointcloud/mmdet3d/core/bbox/coders/centerpoint_bbox_coders.py:55:0
  %53042 : Long(device=cpu) = aten::size(%ind, %54310), scope: mmdet3d.models.detectors.centerpoint.CenterPoint:: # /home/jing/Workspace/pointcloud/mmdet3d/core/bbox/coders/centerpoint_bbox_coders.py:55:0
  %53046 : Long(device=cpu) = aten::size(%ind, %54312), scope: mmdet3d.models.detectors.centerpoint.CenterPoint:: # /home/jing/Workspace/pointcloud/mmdet3d/core/bbox/coders/centerpoint_bbox_coders.py:55:0
  %53049 : int[] = prim::ListConstruct(%53042, %53046, %53036), scope: mmdet3d.models.detectors.centerpoint.CenterPoint::
  %53051 : Long(1, 500, 2, strides=[500, 1, 0], requires_grad=0, device=cuda:0) = aten::expand(%53040, %53049, %54315), scope: mmdet3d.models.detectors.centerpoint.CenterPoint:: # /home/jing/Workspace/pointcloud/mmdet3d/core/bbox/coders/centerpoint_bbox_coders.py:55:0
  %53054 : Float(1, 500, 2, strides=[1000, 2, 1], requires_grad=0, device=cuda:0) = aten::gather(%feat.41, %54312, %53051, %54315), scope: mmdet3d.models.detectors.centerpoint.CenterPoint:: # /home/jing/Workspace/pointcloud/mmdet3d/core/bbox/coders/centerpoint_bbox_coders.py:56:0
  %53057 : int[] = prim::ListConstruct(%52798, %54328, %54313), scope: mmdet3d.models.detectors.centerpoint.CenterPoint::
  %53058 : Float(1, 500, 2, strides=[1000, 2, 1], requires_grad=0, device=cuda:0) = aten::view(%53054, %53057), scope: mmdet3d.models.detectors.centerpoint.CenterPoint:: # /home/jing/Workspace/mmdeploy/mmdeploy/codebase/mmdet3d/core/bbox/centerpoint_bbox_coders.py:46:0
  %53061 : int[] = prim::ListConstruct(%52798, %54328, %54312), scope: mmdet3d.models.detectors.centerpoint.CenterPoint::
  %53062 : Float(1, 500, 1, strides=[500, 1, 1], requires_grad=0, device=cuda:0) = aten::view(%53015, %53061), scope: mmdet3d.models.detectors.centerpoint.CenterPoint:: # /home/jing/Workspace/mmdeploy/mmdeploy/codebase/mmdet3d/core/bbox/centerpoint_bbox_coders.py:47:0
  %53067 : Float(1, 500, 2, strides=[1000, 2, 1], requires_grad=0, device=cuda:0) = aten::slice(%53058, %54310, %54310, %54311, %54312), scope: mmdet3d.models.detectors.centerpoint.CenterPoint:: # /home/jing/Workspace/mmdeploy/mmdeploy/codebase/mmdet3d/core/bbox/centerpoint_bbox_coders.py:47:0
  %53072 : Float(1, 500, 2, strides=[1000, 2, 1], requires_grad=0, device=cuda:0) = aten::slice(%53067, %54312, %54310, %54311, %54312), scope: mmdet3d.models.detectors.centerpoint.CenterPoint:: # /home/jing/Workspace/mmdeploy/mmdeploy/codebase/mmdet3d/core/bbox/centerpoint_bbox_coders.py:47:0
  %53077 : Float(1, 500, 1, strides=[1000, 2, 1], requires_grad=0, device=cuda:0) = aten::slice(%53072, %54313, %54310, %54312, %54312), scope: mmdet3d.models.detectors.centerpoint.CenterPoint:: # /home/jing/Workspace/mmdeploy/mmdeploy/codebase/mmdet3d/core/bbox/centerpoint_bbox_coders.py:47:0
  %53079 : Float(1, 500, 1, strides=[500, 1, 1], requires_grad=0, device=cuda:0) = aten::add(%53062, %53077, %54312), scope: mmdet3d.models.detectors.centerpoint.CenterPoint:: # /home/jing/Workspace/mmdeploy/mmdeploy/codebase/mmdet3d/core/bbox/centerpoint_bbox_coders.py:47:0
  %53083 : Float(1, 500, 1, strides=[500, 1, 1], requires_grad=0, device=cuda:0) = aten::view(%52988, %53061), scope: mmdet3d.models.detectors.centerpoint.CenterPoint:: # /home/jing/Workspace/mmdeploy/mmdeploy/codebase/mmdet3d/core/bbox/centerpoint_bbox_coders.py:48:0
  %53098 : Float(1, 500, 1, strides=[1000, 2, 1], requires_grad=0, device=cuda:0) = aten::slice(%53072, %54313, %54312, %54313, %54312), scope: mmdet3d.models.detectors.centerpoint.CenterPoint:: # /home/jing/Workspace/mmdeploy/mmdeploy/codebase/mmdet3d/core/bbox/centerpoint_bbox_coders.py:48:0
  %53100 : Float(1, 500, 1, strides=[500, 1, 1], requires_grad=0, device=cuda:0) = aten::add(%53083, %53098, %54312), scope: mmdet3d.models.detectors.centerpoint.CenterPoint:: # /home/jing/Workspace/mmdeploy/mmdeploy/codebase/mmdet3d/core/bbox/centerpoint_bbox_coders.py:48:0
  %53106 : Float(1, 50, 150, 1, strides=[15000, 150, 1, 7500], requires_grad=0, device=cuda:0) = aten::permute(%rot_sine, %54024), scope: mmdet3d.models.detectors.centerpoint.CenterPoint:: # /home/jing/Workspace/pointcloud/mmdet3d/core/bbox/coders/centerpoint_bbox_coders.py:109:0
  %53108 : Float(1, 50, 150, 1, strides=[15000, 150, 1, 7500], requires_grad=0, device=cuda:0) = aten::contiguous(%53106, %54310), scope: mmdet3d.models.detectors.centerpoint.CenterPoint:: # /home/jing/Workspace/pointcloud/mmdet3d/core/bbox/coders/centerpoint_bbox_coders.py:109:0
  %53110 : Long(device=cpu) = aten::size(%53108, %54310), scope: mmdet3d.models.detectors.centerpoint.CenterPoint:: # /home/jing/Workspace/pointcloud/mmdet3d/core/bbox/coders/centerpoint_bbox_coders.py:110:0
  %53114 : Long(device=cpu) = aten::size(%53108, %54318), scope: mmdet3d.models.detectors.centerpoint.CenterPoint:: # /home/jing/Workspace/pointcloud/mmdet3d/core/bbox/coders/centerpoint_bbox_coders.py:110:0
  %53118 : int[] = prim::ListConstruct(%53110, %54316, %53114), scope: mmdet3d.models.detectors.centerpoint.CenterPoint::
  %feat.43 : Float(1, 7500, 1, strides=[7500, 1, 7500], requires_grad=0, device=cuda:0) = aten::view(%53108, %53118), scope: mmdet3d.models.detectors.centerpoint.CenterPoint:: # /home/jing/Workspace/pointcloud/mmdet3d/core/bbox/coders/centerpoint_bbox_coders.py:110:0
  %53121 : Long(device=cpu) = aten::size(%feat.43, %54313), scope: mmdet3d.models.detectors.centerpoint.CenterPoint:: # /home/jing/Workspace/pointcloud/mmdet3d/core/bbox/coders/centerpoint_bbox_coders.py:54:0
  %53134 : int[] = prim::ListConstruct(%53042, %53046, %53121), scope: mmdet3d.models.detectors.centerpoint.CenterPoint::
  %53136 : Long(1, 500, 1, strides=[500, 1, 1], requires_grad=0, device=cuda:0) = aten::expand(%53040, %53134, %54315), scope: mmdet3d.models.detectors.centerpoint.CenterPoint:: # /home/jing/Workspace/pointcloud/mmdet3d/core/bbox/coders/centerpoint_bbox_coders.py:55:0
  %53139 : Float(1, 500, 1, strides=[500, 1, 1], requires_grad=0, device=cuda:0) = aten::gather(%feat.43, %54312, %53136, %54315), scope: mmdet3d.models.detectors.centerpoint.CenterPoint:: # /home/jing/Workspace/pointcloud/mmdet3d/core/bbox/coders/centerpoint_bbox_coders.py:56:0
  %53143 : Float(1, 500, 1, strides=[500, 1, 1], requires_grad=0, device=cuda:0) = aten::view(%53139, %53061), scope: mmdet3d.models.detectors.centerpoint.CenterPoint:: # /home/jing/Workspace/mmdeploy/mmdeploy/codebase/mmdet3d/core/bbox/centerpoint_bbox_coders.py:55:0
  %53149 : Float(1, 50, 150, 1, strides=[15000, 150, 1, 7500], requires_grad=0, device=cuda:0) = aten::permute(%rot_cosine, %54024), scope: mmdet3d.models.detectors.centerpoint.CenterPoint:: # /home/jing/Workspace/pointcloud/mmdet3d/core/bbox/coders/centerpoint_bbox_coders.py:109:0
  %53151 : Float(1, 50, 150, 1, strides=[15000, 150, 1, 7500], requires_grad=0, device=cuda:0) = aten::contiguous(%53149, %54310), scope: mmdet3d.models.detectors.centerpoint.CenterPoint:: # /home/jing/Workspace/pointcloud/mmdet3d/core/bbox/coders/centerpoint_bbox_coders.py:109:0
  %53153 : Long(device=cpu) = aten::size(%53151, %54310), scope: mmdet3d.models.detectors.centerpoint.CenterPoint:: # /home/jing/Workspace/pointcloud/mmdet3d/core/bbox/coders/centerpoint_bbox_coders.py:110:0
  %53157 : Long(device=cpu) = aten::size(%53151, %54318), scope: mmdet3d.models.detectors.centerpoint.CenterPoint:: # /home/jing/Workspace/pointcloud/mmdet3d/core/bbox/coders/centerpoint_bbox_coders.py:110:0
  %53161 : int[] = prim::ListConstruct(%53153, %54316, %53157), scope: mmdet3d.models.detectors.centerpoint.CenterPoint::
  %feat.45 : Float(1, 7500, 1, strides=[7500, 1, 7500], requires_grad=0, device=cuda:0) = aten::view(%53151, %53161), scope: mmdet3d.models.detectors.centerpoint.CenterPoint:: # /home/jing/Workspace/pointcloud/mmdet3d/core/bbox/coders/centerpoint_bbox_coders.py:110:0
  %53164 : Long(device=cpu) = aten::size(%feat.45, %54313), scope: mmdet3d.models.detectors.centerpoint.CenterPoint:: # /home/jing/Workspace/pointcloud/mmdet3d/core/bbox/coders/centerpoint_bbox_coders.py:54:0
  %53177 : int[] = prim::ListConstruct(%53042, %53046, %53164), scope: mmdet3d.models.detectors.centerpoint.CenterPoint::
  %53179 : Long(1, 500, 1, strides=[500, 1, 1], requires_grad=0, device=cuda:0) = aten::expand(%53040, %53177, %54315), scope: mmdet3d.models.detectors.centerpoint.CenterPoint:: # /home/jing/Workspace/pointcloud/mmdet3d/core/bbox/coders/centerpoint_bbox_coders.py:55:0
  %53182 : Float(1, 500, 1, strides=[500, 1, 1], requires_grad=0, device=cuda:0) = aten::gather(%feat.45, %54312, %53179, %54315), scope: mmdet3d.models.detectors.centerpoint.CenterPoint:: # /home/jing/Workspace/pointcloud/mmdet3d/core/bbox/coders/centerpoint_bbox_coders.py:56:0
  %53186 : Float(1, 500, 1, strides=[500, 1, 1], requires_grad=0, device=cuda:0) = aten::view(%53182, %53061), scope: mmdet3d.models.detectors.centerpoint.CenterPoint:: # /home/jing/Workspace/mmdeploy/mmdeploy/codebase/mmdet3d/core/bbox/centerpoint_bbox_coders.py:58:0
  %54359 : Double(device=cpu) = prim::Constant[value={1e-06}]()
  %54215 : Float(1, 500, 1, strides=[500, 1, 1], requires_grad=0, device=cuda:0) = aten::add(%53186, %54359, %54312), scope: mmdet3d.models.detectors.centerpoint.CenterPoint:: # /home/jing/Workspace/mmdeploy/mmdeploy/pytorch/functions/atan2.py:15:0
  %53190 : Float(1, 500, 1, strides=[500, 1, 1], requires_grad=0, device=cuda:0) = aten::div(%53143, %54215), scope: mmdet3d.models.detectors.centerpoint.CenterPoint:: # /home/jing/Workspace/mmdeploy/mmdeploy/pytorch/functions/atan2.py:15:0
  %53191 : Float(1, 500, 1, strides=[500, 1, 1], requires_grad=0, device=cuda:0) = aten::atan(%53190), scope: mmdet3d.models.detectors.centerpoint.CenterPoint:: # /home/jing/Workspace/mmdeploy/mmdeploy/pytorch/functions/atan2.py:15:0
  %53197 : Float(1, 50, 150, 1, strides=[7500, 150, 1, 7500], requires_grad=0, device=cuda:0) = aten::permute(%hei, %54024), scope: mmdet3d.models.detectors.centerpoint.CenterPoint:: # /home/jing/Workspace/pointcloud/mmdet3d/core/bbox/coders/centerpoint_bbox_coders.py:109:0
  %53199 : Float(1, 50, 150, 1, strides=[7500, 150, 1, 7500], requires_grad=0, device=cuda:0) = aten::contiguous(%53197, %54310), scope: mmdet3d.models.detectors.centerpoint.CenterPoint:: # /home/jing/Workspace/pointcloud/mmdet3d/core/bbox/coders/centerpoint_bbox_coders.py:109:0
  %53201 : Long(device=cpu) = aten::size(%53199, %54310), scope: mmdet3d.models.detectors.centerpoint.CenterPoint:: # /home/jing/Workspace/pointcloud/mmdet3d/core/bbox/coders/centerpoint_bbox_coders.py:110:0
  %53205 : Long(device=cpu) = aten::size(%53199, %54318), scope: mmdet3d.models.detectors.centerpoint.CenterPoint:: # /home/jing/Workspace/pointcloud/mmdet3d/core/bbox/coders/centerpoint_bbox_coders.py:110:0
  %53209 : int[] = prim::ListConstruct(%53201, %54316, %53205), scope: mmdet3d.models.detectors.centerpoint.CenterPoint::
  %feat.47 : Float(1, 7500, 1, strides=[7500, 1, 7500], requires_grad=0, device=cuda:0) = aten::view(%53199, %53209), scope: mmdet3d.models.detectors.centerpoint.CenterPoint:: # /home/jing/Workspace/pointcloud/mmdet3d/core/bbox/coders/centerpoint_bbox_coders.py:110:0
  %53212 : Long(device=cpu) = aten::size(%feat.47, %54313), scope: mmdet3d.models.detectors.centerpoint.CenterPoint:: # /home/jing/Workspace/pointcloud/mmdet3d/core/bbox/coders/centerpoint_bbox_coders.py:54:0
  %53225 : int[] = prim::ListConstruct(%53042, %53046, %53212), scope: mmdet3d.models.detectors.centerpoint.CenterPoint::
  %53227 : Long(1, 500, 1, strides=[500, 1, 1], requires_grad=0, device=cuda:0) = aten::expand(%53040, %53225, %54315), scope: mmdet3d.models.detectors.centerpoint.CenterPoint:: # /home/jing/Workspace/pointcloud/mmdet3d/core/bbox/coders/centerpoint_bbox_coders.py:55:0
  %53230 : Float(1, 500, 1, strides=[500, 1, 1], requires_grad=0, device=cuda:0) = aten::gather(%feat.47, %54312, %53227, %54315), scope: mmdet3d.models.detectors.centerpoint.CenterPoint:: # /home/jing/Workspace/pointcloud/mmdet3d/core/bbox/coders/centerpoint_bbox_coders.py:56:0
  %53234 : Float(1, 500, 1, strides=[500, 1, 1], requires_grad=0, device=cuda:0) = aten::view(%53230, %53061), scope: mmdet3d.models.detectors.centerpoint.CenterPoint:: # /home/jing/Workspace/mmdeploy/mmdeploy/codebase/mmdet3d/core/bbox/centerpoint_bbox_coders.py:63:0
  %53240 : Float(1, 50, 150, 3, strides=[22500, 150, 1, 7500], requires_grad=0, device=cuda:0) = aten::permute(%dim, %54024), scope: mmdet3d.models.detectors.centerpoint.CenterPoint:: # /home/jing/Workspace/pointcloud/mmdet3d/core/bbox/coders/centerpoint_bbox_coders.py:109:0
  %53242 : Float(1, 50, 150, 3, strides=[22500, 450, 3, 1], requires_grad=0, device=cuda:0) = aten::contiguous(%53240, %54310), scope: mmdet3d.models.detectors.centerpoint.CenterPoint:: # /home/jing/Workspace/pointcloud/mmdet3d/core/bbox/coders/centerpoint_bbox_coders.py:109:0
  %53244 : Long(device=cpu) = aten::size(%53242, %54310), scope: mmdet3d.models.detectors.centerpoint.CenterPoint:: # /home/jing/Workspace/pointcloud/mmdet3d/core/bbox/coders/centerpoint_bbox_coders.py:110:0
  %53248 : Long(device=cpu) = aten::size(%53242, %54318), scope: mmdet3d.models.detectors.centerpoint.CenterPoint:: # /home/jing/Workspace/pointcloud/mmdet3d/core/bbox/coders/centerpoint_bbox_coders.py:110:0
  %53252 : int[] = prim::ListConstruct(%53244, %54316, %53248), scope: mmdet3d.models.detectors.centerpoint.CenterPoint::
  %feat : Float(1, 7500, 3, strides=[22500, 3, 1], requires_grad=0, device=cuda:0) = aten::view(%53242, %53252), scope: mmdet3d.models.detectors.centerpoint.CenterPoint:: # /home/jing/Workspace/pointcloud/mmdet3d/core/bbox/coders/centerpoint_bbox_coders.py:110:0
  %53255 : Long(device=cpu) = aten::size(%feat, %54313), scope: mmdet3d.models.detectors.centerpoint.CenterPoint:: # /home/jing/Workspace/pointcloud/mmdet3d/core/bbox/coders/centerpoint_bbox_coders.py:54:0
  %53268 : int[] = prim::ListConstruct(%53042, %53046, %53255), scope: mmdet3d.models.detectors.centerpoint.CenterPoint::
  %53270 : Long(1, 500, 3, strides=[500, 1, 0], requires_grad=0, device=cuda:0) = aten::expand(%53040, %53268, %54315), scope: mmdet3d.models.detectors.centerpoint.CenterPoint:: # /home/jing/Workspace/pointcloud/mmdet3d/core/bbox/coders/centerpoint_bbox_coders.py:55:0
  %53273 : Float(1, 500, 3, strides=[1500, 3, 1], requires_grad=0, device=cuda:0) = aten::gather(%feat, %54312, %53270, %54315), scope: mmdet3d.models.detectors.centerpoint.CenterPoint:: # /home/jing/Workspace/pointcloud/mmdet3d/core/bbox/coders/centerpoint_bbox_coders.py:56:0
  %53276 : int[] = prim::ListConstruct(%52798, %54328, %54318), scope: mmdet3d.models.detectors.centerpoint.CenterPoint::
  %53277 : Float(1, 500, 3, strides=[1500, 3, 1], requires_grad=0, device=cuda:0) = aten::view(%53273, %53276), scope: mmdet3d.models.detectors.centerpoint.CenterPoint:: # /home/jing/Workspace/mmdeploy/mmdeploy/codebase/mmdet3d/core/bbox/centerpoint_bbox_coders.py:67:0
  %53280 : Int(1, 500, strides=[500, 1], requires_grad=0, device=cuda:0) = aten::view(%52934, %52960), scope: mmdet3d.models.detectors.centerpoint.CenterPoint:: # /home/jing/Workspace/mmdeploy/mmdeploy/codebase/mmdet3d/core/bbox/centerpoint_bbox_coders.py:70:0
  %53285 : Float(1, 500, strides=[500, 1], requires_grad=0, device=cuda:0) = aten::to(%53280, %54324, %54315, %54315, %42133), scope: mmdet3d.models.detectors.centerpoint.CenterPoint:: # /home/jing/Workspace/mmdeploy/mmdeploy/codebase/mmdet3d/core/bbox/centerpoint_bbox_coders.py:70:0
  %53288 : Float(1, 500, strides=[500, 1], requires_grad=0, device=cuda:0) = aten::view(%52919, %52960), scope: mmdet3d.models.detectors.centerpoint.CenterPoint:: # /home/jing/Workspace/mmdeploy/mmdeploy/codebase/mmdet3d/core/bbox/centerpoint_bbox_coders.py:71:0
  %53292 : Float(1, 500, 1, strides=[500, 1, 1], requires_grad=0, device=cuda:0) = aten::view(%53079, %53061), scope: mmdet3d.models.detectors.centerpoint.CenterPoint:: # /home/jing/Workspace/mmdeploy/mmdeploy/codebase/mmdet3d/core/bbox/centerpoint_bbox_coders.py:73:0
  %54360 : Long(device=cpu) = prim::Constant[value={8}]()
  %54217 : Float(1, 500, 1, strides=[500, 1, 1], requires_grad=0, device=cuda:0) = aten::mul(%53292, %54360), scope: mmdet3d.models.detectors.centerpoint.CenterPoint:: # /home/jing/Workspace/mmdeploy/mmdeploy/codebase/mmdet3d/core/bbox/centerpoint_bbox_coders.py:73:0
  %54361 : Double(device=cpu) = prim::Constant[value={0.1}]()
  %54219 : Float(1, 500, 1, strides=[500, 1, 1], requires_grad=0, device=cuda:0) = aten::mul(%54217, %54361), scope: mmdet3d.models.detectors.centerpoint.CenterPoint:: # /home/jing/Workspace/mmdeploy/mmdeploy/codebase/mmdet3d/core/bbox/centerpoint_bbox_coders.py:73:0
  %53303 : Float(1, 500, 1, strides=[500, 1, 1], requires_grad=0, device=cuda:0) = aten::view(%53100, %53061), scope: mmdet3d.models.detectors.centerpoint.CenterPoint:: # /home/jing/Workspace/mmdeploy/mmdeploy/codebase/mmdet3d/core/bbox/centerpoint_bbox_coders.py:76:0
  %54362 : Long(device=cpu) = prim::Constant[value={8}]()
  %54223 : Float(1, 500, 1, strides=[500, 1, 1], requires_grad=0, device=cuda:0) = aten::mul(%53303, %54362), scope: mmdet3d.models.detectors.centerpoint.CenterPoint:: # /home/jing/Workspace/mmdeploy/mmdeploy/codebase/mmdet3d/core/bbox/centerpoint_bbox_coders.py:76:0
  %54363 : Double(device=cpu) = prim::Constant[value={0.1}]()
  %54225 : Float(1, 500, 1, strides=[500, 1, 1], requires_grad=0, device=cuda:0) = aten::mul(%54223, %54363), scope: mmdet3d.models.detectors.centerpoint.CenterPoint:: # /home/jing/Workspace/mmdeploy/mmdeploy/codebase/mmdet3d/core/bbox/centerpoint_bbox_coders.py:76:0
  %54364 : Long(device=cpu) = prim::Constant[value={-20}]()
  %54227 : Float(1, 500, 1, strides=[500, 1, 1], requires_grad=0, device=cuda:0) = aten::add(%54225, %54364, %54312), scope: mmdet3d.models.detectors.centerpoint.CenterPoint:: # /home/jing/Workspace/mmdeploy/mmdeploy/codebase/mmdet3d/core/bbox/centerpoint_bbox_coders.py:76:0
  %53311 : Tensor[] = prim::ListConstruct(%54219, %54227, %53234, %53277, %53191), scope: mmdet3d.models.detectors.centerpoint.CenterPoint::
  %53313 : Float(1, 500, 7, strides=[3500, 7, 1], requires_grad=0, device=cuda:0) = aten::cat(%53311, %54313), scope: mmdet3d.models.detectors.centerpoint.CenterPoint:: # /home/jing/Workspace/mmdeploy/mmdeploy/codebase/mmdet3d/core/bbox/centerpoint_bbox_coders.py:81:0
  %53326 : Float(1, 500, 3, strides=[3500, 7, 1], requires_grad=0, device=cuda:0) = aten::slice(%53313, %54313, %54310, %54318, %54312), scope: mmdet3d.models.detectors.centerpoint.CenterPoint:: # /home/jing/Workspace/mmdeploy/mmdeploy/codebase/mmdet3d/core/bbox/centerpoint_bbox_coders.py:92:0
  %53332 : Bool(1, 500, 3, strides=[1500, 3, 1], requires_grad=0, device=cuda:0) = aten::ge(%53326, %54031), scope: mmdet3d.models.detectors.centerpoint.CenterPoint:: # /home/jing/Workspace/mmdeploy/mmdeploy/codebase/mmdet3d/core/bbox/centerpoint_bbox_coders.py:92:0
  %53343 : Bool(1, 500, 3, strides=[1500, 3, 1], requires_grad=0, device=cuda:0) = aten::le(%53326, %54032), scope: mmdet3d.models.detectors.centerpoint.CenterPoint:: # /home/jing/Workspace/mmdeploy/mmdeploy/codebase/mmdet3d/core/bbox/centerpoint_bbox_coders.py:93:0
  %53344 : Tensor[] = prim::ListConstruct(%53332, %53343), scope: mmdet3d.models.detectors.centerpoint.CenterPoint::
  %53346 : Bool(1, 500, 6, strides=[3000, 6, 1], requires_grad=0, device=cuda:0) = aten::cat(%53344, %54316), scope: mmdet3d.models.detectors.centerpoint.CenterPoint:: # /home/jing/Workspace/mmdeploy/mmdeploy/codebase/mmdet3d/core/bbox/centerpoint_bbox_coders.py:92:0
  %53350 : Long(1, 500, strides=[500, 1], requires_grad=0, device=cuda:0) = aten::prod(%53346, %54316, %54315, %42133), scope: mmdet3d.models.detectors.centerpoint.CenterPoint:: # /home/jing/Workspace/mmdeploy/mmdeploy/codebase/mmdet3d/core/bbox/centerpoint_bbox_coders.py:91:0
  %53355 : Bool(1, 500, strides=[500, 1], requires_grad=0, device=cuda:0) = aten::to(%53350, %54336, %54315, %54315, %42133), scope: mmdet3d.models.detectors.centerpoint.CenterPoint:: # /home/jing/Workspace/mmdeploy/mmdeploy/codebase/mmdet3d/core/bbox/centerpoint_bbox_coders.py:91:0
  %53357 : Bool(1, 500, 1, strides=[500, 1, 1], requires_grad=0, device=cuda:0) = aten::unsqueeze(%53355, %54316), scope: mmdet3d.models.detectors.centerpoint.CenterPoint:: # /home/jing/Workspace/mmdeploy/mmdeploy/codebase/mmdet3d/core/bbox/centerpoint_bbox_coders.py:97:0
  %53365 : Float(1, 500, 7, strides=[3500, 7, 1], requires_grad=0, device=cuda:0) = aten::where(%53357, %53313, %54034), scope: mmdet3d.models.detectors.centerpoint.CenterPoint:: # /home/jing/Workspace/mmdeploy/mmdeploy/codebase/mmdet3d/core/bbox/centerpoint_bbox_coders.py:96:0
  %53373 : Float(1, 500, strides=[500, 1], requires_grad=0, device=cuda:0) = aten::where(%53355, %53288, %54034), scope: mmdet3d.models.detectors.centerpoint.CenterPoint:: # /home/jing/Workspace/mmdeploy/mmdeploy/codebase/mmdet3d/core/bbox/centerpoint_bbox_coders.py:99:0
  %53381 : Float(1, 500, strides=[500, 1], requires_grad=0, device=cuda:0) = aten::where(%53355, %53285, %54034), scope: mmdet3d.models.detectors.centerpoint.CenterPoint:: # /home/jing/Workspace/mmdeploy/mmdeploy/codebase/mmdet3d/core/bbox/centerpoint_bbox_coders.py:101:0
  %53384 : Float(500, 7, strides=[7, 1], requires_grad=0, device=cuda:0) = aten::select(%53365, %54310, %54310), scope: mmdet3d.models.detectors.centerpoint.CenterPoint:: # /home/jing/Workspace/mmdeploy/mmdeploy/codebase/mmdet3d/core/bbox/centerpoint_bbox_coders.py:104:0
  %53387 : Float(500, strides=[1], requires_grad=0, device=cuda:0) = aten::select(%53373, %54310, %54310), scope: mmdet3d.models.detectors.centerpoint.CenterPoint:: # /home/jing/Workspace/mmdeploy/mmdeploy/codebase/mmdet3d/core/bbox/centerpoint_bbox_coders.py:105:0
  %53390 : Float(500, strides=[1], requires_grad=0, device=cuda:0) = aten::select(%53381, %54310, %54310), scope: mmdet3d.models.detectors.centerpoint.CenterPoint:: # /home/jing/Workspace/mmdeploy/mmdeploy/codebase/mmdet3d/core/bbox/centerpoint_bbox_coders.py:106:0
  %53392 : Float(1, 500, 7, strides=[3500, 7, 1], requires_grad=0, device=cuda:0) = aten::unsqueeze(%53384, %54310), scope: mmdet3d.models.detectors.centerpoint.CenterPoint:: # /home/jing/Workspace/mmdeploy/mmdeploy/codebase/mmdet3d/models/centerpoint.py:103:0
  %53394 : Float(1, 500, strides=[500, 1], requires_grad=0, device=cuda:0) = aten::unsqueeze(%53387, %54310), scope: mmdet3d.models.detectors.centerpoint.CenterPoint:: # /home/jing/Workspace/mmdeploy/mmdeploy/codebase/mmdet3d/models/centerpoint.py:104:0
  %mlvl_scores : Float(1, 500, 1, strides=[500, 1, 1], requires_grad=0, device=cuda:0) = aten::unsqueeze(%53394, %54316), scope: mmdet3d.models.detectors.centerpoint.CenterPoint:: # /home/jing/Workspace/mmdeploy/mmdeploy/codebase/mmdet3d/models/centerpoint.py:104:0
  %53398 : Float(1, 500, strides=[500, 1], requires_grad=0, device=cuda:0) = aten::unsqueeze(%53390, %54310), scope: mmdet3d.models.detectors.centerpoint.CenterPoint:: # /home/jing/Workspace/mmdeploy/mmdeploy/codebase/mmdet3d/models/centerpoint.py:105:0
  %53403 : Long(1, 500, strides=[500, 1], requires_grad=0, device=cuda:0) = aten::to(%53398, %54314, %54315, %54315, %42133), scope: mmdet3d.models.detectors.centerpoint.CenterPoint:: # /home/jing/Workspace/mmdeploy/mmdeploy/codebase/mmdet3d/models/centerpoint.py:105:0
  %53414 : Float(1, 500, 5, strides=[2500, 5, 1], requires_grad=0, device=cuda:0) = aten::index(%53392, %54129), scope: mmdet3d.models.detectors.centerpoint.CenterPoint:: # /home/jing/Workspace/mmdeploy/mmdeploy/codebase/mmdet3d/models/centerpoint.py:106:0
  %53416 : Float(1, 500, 5, strides=[2500, 5, 1], requires_grad=0, device=cuda:0) = aten::clone(%53414, %42133), scope: mmdet3d.models.detectors.centerpoint.CenterPoint:: # /home/jing/Workspace/mmdeploy/mmdeploy/codebase/mmdet3d/models/centerpoint.py:106:0
  %53427 : Float(1, 500, 1, 5, strides=[2500, 5, 5, 1], requires_grad=0, device=cuda:0) = aten::unsqueeze(%53416, %54313), scope: mmdet3d.models.detectors.centerpoint.CenterPoint:: # /home/jing/Workspace/mmdeploy/mmdeploy/codebase/mmdet3d/core/post_processing/box3d_nms.py:107:0
  %53588 : Float(1, 83, 6, strides=[498, 6, 1], requires_grad=0, device=cuda:0), %53589 : Long(1, 83, strides=[83, 1], requires_grad=0, device=cuda:0), %53590 : Long(1, 83, strides=[83, 1], requires_grad=0, device=cuda:0) = ^TRTBatchedBEVNMSop[inplace=0, module="mmdeploy.mmcv.ops.nms_rotated", Subgraph=<Graph>](1, -1, 83, 0.2, 0.1)(%53427, %mlvl_scores), scope: mmdet3d.models.detectors.centerpoint.CenterPoint:: # /home/jing/Workspace/mmdeploy/mmdeploy/codebase/mmdet3d/core/post_processing/box3d_nms.py:108:0
  %53497 : Long(83, strides=[1], requires_grad=0, device=cuda:0) = aten::squeeze(%53590, %54310), scope: mmdet3d.models.detectors.centerpoint.CenterPoint:: # /home/jing/Workspace/mmdeploy/mmdeploy/codebase/mmdet3d/core/post_processing/box3d_nms.py:112:0
  %53502 : Float(1, 500, 7, strides=[3500, 7, 1], requires_grad=0, device=cuda:0) = aten::slice(%53392, %54310, %54310, %54311, %54312), scope: mmdet3d.models.detectors.centerpoint.CenterPoint:: # /home/jing/Workspace/mmdeploy/mmdeploy/codebase/mmdet3d/core/post_processing/box3d_nms.py:113:0
  %53507 : Float(1, 500, 7, strides=[3500, 7, 1], requires_grad=0, device=cuda:0) = aten::slice(%53502, %54313, %54310, %54311, %54312), scope: mmdet3d.models.detectors.centerpoint.CenterPoint:: # /home/jing/Workspace/mmdeploy/mmdeploy/codebase/mmdet3d/core/post_processing/box3d_nms.py:113:0
  %53509 : Tensor?[] = prim::ListConstruct(%42133, %53497), scope: mmdet3d.models.detectors.centerpoint.CenterPoint::
  %53510 : Float(1, 83, 7, strides=[581, 7, 1], requires_grad=0, device=cuda:0) = aten::index(%53507, %53509), scope: mmdet3d.models.detectors.centerpoint.CenterPoint:: # /home/jing/Workspace/mmdeploy/mmdeploy/codebase/mmdet3d/core/post_processing/box3d_nms.py:113:0
  %53515 : Float(1, 83, 6, strides=[498, 6, 1], requires_grad=0, device=cuda:0) = aten::slice(%53588, %54310, %54310, %54311, %54312), scope: mmdet3d.models.detectors.centerpoint.CenterPoint:: # /home/jing/Workspace/mmdeploy/mmdeploy/codebase/mmdet3d/core/post_processing/box3d_nms.py:114:0
  %53520 : Float(1, 83, 6, strides=[498, 6, 1], requires_grad=0, device=cuda:0) = aten::slice(%53515, %54312, %54310, %54311, %54312), scope: mmdet3d.models.detectors.centerpoint.CenterPoint:: # /home/jing/Workspace/mmdeploy/mmdeploy/codebase/mmdet3d/core/post_processing/box3d_nms.py:114:0
  %53523 : Float(1, 83, strides=[498, 6], requires_grad=0, device=cuda:0) = aten::select(%53520, %54313, %54316), scope: mmdet3d.models.detectors.centerpoint.CenterPoint:: # /home/jing/Workspace/mmdeploy/mmdeploy/codebase/mmdet3d/core/post_processing/box3d_nms.py:114:0
  %53528 : Long(1, 500, strides=[500, 1], requires_grad=0, device=cuda:0) = aten::slice(%53403, %54310, %54310, %54311, %54312), scope: mmdet3d.models.detectors.centerpoint.CenterPoint:: # /home/jing/Workspace/mmdeploy/mmdeploy/codebase/mmdet3d/core/post_processing/box3d_nms.py:121:0
  %53531 : Long(1, 83, strides=[83, 1], requires_grad=0, device=cuda:0) = aten::index(%53528, %53509), scope: mmdet3d.models.detectors.centerpoint.CenterPoint:: # /home/jing/Workspace/mmdeploy/mmdeploy/codebase/mmdet3d/core/post_processing/box3d_nms.py:121:0
  %53532 : Tensor[] = prim::ListConstruct(%50482, %51239, %51996, %52753, %53510), scope: mmdet3d.models.detectors.centerpoint.CenterPoint::
  %53534 : Float(1, 415, 7, strides=[2905, 7, 1], requires_grad=0, device=cuda:0) = aten::cat(%53532, %54312), scope: mmdet3d.models.detectors.centerpoint.CenterPoint:: # /home/jing/Workspace/mmdeploy/mmdeploy/codebase/mmdet3d/models/centerpoint.py:120:0
  %53537 : Float(1, 415, strides=[2905, 7], requires_grad=0, device=cuda:0) = aten::select(%53534, %54313, %54313), scope: mmdet3d.models.detectors.centerpoint.CenterPoint:: # /home/jing/Workspace/mmdeploy/mmdeploy/codebase/mmdet3d/models/centerpoint.py:121:0
  %54365 : Long(device=cpu) = prim::Constant[value={5}](), scope: mmdet3d.models.detectors.centerpoint.CenterPoint::
  %53540 : Float(1, 415, strides=[2905, 7], requires_grad=0, device=cuda:0) = aten::select(%53534, %54313, %54365), scope: mmdet3d.models.detectors.centerpoint.CenterPoint:: # /home/jing/Workspace/mmdeploy/mmdeploy/codebase/mmdet3d/models/centerpoint.py:121:0
  %54366 : Double(device=cpu) = prim::Constant[value={0.5}]()
  %54229 : Float(1, 415, strides=[415, 1], requires_grad=0, device=cuda:0) = aten::mul(%53540, %54366), scope: mmdet3d.models.detectors.centerpoint.CenterPoint:: # /home/jing/Workspace/mmdeploy/mmdeploy/codebase/mmdet3d/models/centerpoint.py:121:0
  %53544 : Float(1, 415, strides=[415, 1], requires_grad=0, device=cuda:0) = aten::sub(%53537, %54229, %54312), scope: mmdet3d.models.detectors.centerpoint.CenterPoint:: # /home/jing/Workspace/mmdeploy/mmdeploy/codebase/mmdet3d/models/centerpoint.py:121:0
  %53547 : Float(1, 415, strides=[2905, 7], requires_grad=0, device=cuda:0) = aten::select(%53534, %54313, %54313), scope: mmdet3d.models.detectors.centerpoint.CenterPoint:: # /home/jing/Workspace/mmdeploy/mmdeploy/pytorch/functions/tensor_setitem.py:26:0
  %54299 : Tensor?[] = prim::ListConstruct()
  %54300 : Float(1, 415, strides=[415, 1], requires_grad=0, device=cuda:0) = aten::expand_as(%53544, %53547), scope: mmdet3d.models.detectors.centerpoint.CenterPoint:: # /home/jing/Workspace/mmdeploy/mmdeploy/pytorch/functions/tensor_setitem.py:26:0
  %54302 : Tensor = onnx::Placeholder[name="index_put_"](%53534), scope: mmdet3d.models.detectors.centerpoint.CenterPoint:: # /home/jing/Workspace/mmdeploy/mmdeploy/pytorch/functions/tensor_setitem.py:26:0
    block0():
      %54303 : Float(1, 415, strides=[2905, 7], requires_grad=0, device=cuda:0) = aten::select(%53534, %54313, %54313), scope: mmdet3d.models.detectors.centerpoint.CenterPoint:: # /home/jing/Workspace/mmdeploy/mmdeploy/pytorch/functions/tensor_setitem.py:26:0
      %54304 : Float(1, 415, strides=[2905, 7], requires_grad=0, device=cuda:0) = aten::index_put_(%54303, %54299, %54300, %54315), scope: mmdet3d.models.detectors.centerpoint.CenterPoint:: # /home/jing/Workspace/mmdeploy/mmdeploy/pytorch/functions/tensor_setitem.py:26:0
      -> (%54304)
  %53550 : Tensor[] = prim::ListConstruct(%50495, %51252, %52009, %52766, %53523), scope: mmdet3d.models.detectors.centerpoint.CenterPoint::
  %53552 : Float(1, 415, strides=[415, 1], requires_grad=0, device=cuda:0) = aten::cat(%53550, %54312), scope: mmdet3d.models.detectors.centerpoint.CenterPoint:: # /home/jing/Workspace/mmdeploy/mmdeploy/codebase/mmdet3d/models/centerpoint.py:122:0
  %54230 : Tensor = aten::type_as(%50269, %50503)
  %54305 : Long(1, 83, strides=[83, 1], requires_grad=0, device=cuda:0) = aten::add(%50503, %54230, %54312), scope: mmdet3d.models.detectors.centerpoint.CenterPoint:: # /home/jing/Workspace/mmdeploy/mmdeploy/codebase/mmdet3d/models/centerpoint.py:127:0
  %54231 : Tensor = aten::type_as(%42149, %51260)
  %54306 : Long(1, 83, strides=[83, 1], requires_grad=0, device=cuda:0) = aten::add(%51260, %54231, %54312), scope: mmdet3d.models.detectors.centerpoint.CenterPoint:: # /home/jing/Workspace/mmdeploy/mmdeploy/codebase/mmdet3d/models/centerpoint.py:127:0
  %53559 : Long(requires_grad=0, device=cpu) = prim::Constant[value={2}](), scope: mmdet3d.models.detectors.centerpoint.CenterPoint:: # /home/jing/Workspace/mmdeploy/mmdeploy/codebase/mmdet3d/models/centerpoint.py:127:0
  %54232 : Tensor = aten::type_as(%53559, %52017)
  %54307 : Long(1, 83, strides=[83, 1], requires_grad=0, device=cuda:0) = aten::add(%52017, %54232, %54312), scope: mmdet3d.models.detectors.centerpoint.CenterPoint:: # /home/jing/Workspace/mmdeploy/mmdeploy/codebase/mmdet3d/models/centerpoint.py:127:0
  %53562 : Long(requires_grad=0, device=cpu) = prim::Constant[value={3}](), scope: mmdet3d.models.detectors.centerpoint.CenterPoint:: # /home/jing/Workspace/mmdeploy/mmdeploy/codebase/mmdet3d/models/centerpoint.py:127:0
  %54233 : Tensor = aten::type_as(%53562, %52774)
  %54308 : Long(1, 83, strides=[83, 1], requires_grad=0, device=cuda:0) = aten::add(%52774, %54233, %54312), scope: mmdet3d.models.detectors.centerpoint.CenterPoint:: # /home/jing/Workspace/mmdeploy/mmdeploy/codebase/mmdet3d/models/centerpoint.py:127:0
  %53565 : Long(requires_grad=0, device=cpu) = prim::Constant[value={4}](), scope: mmdet3d.models.detectors.centerpoint.CenterPoint:: # /home/jing/Workspace/mmdeploy/mmdeploy/codebase/mmdet3d/models/centerpoint.py:127:0
  %54234 : Tensor = aten::type_as(%53565, %53531)
  %54309 : Long(1, 83, strides=[83, 1], requires_grad=0, device=cuda:0) = aten::add(%53531, %54234, %54312), scope: mmdet3d.models.detectors.centerpoint.CenterPoint:: # /home/jing/Workspace/mmdeploy/mmdeploy/codebase/mmdet3d/models/centerpoint.py:127:0
  %53568 : Tensor[] = prim::ListConstruct(%54305, %54306, %54307, %54308, %54309), scope: mmdet3d.models.detectors.centerpoint.CenterPoint::
  %53570 : Long(1, 415, strides=[415, 1], requires_grad=0, device=cuda:0) = aten::cat(%53568, %54312), scope: mmdet3d.models.detectors.centerpoint.CenterPoint:: # /home/jing/Workspace/mmdeploy/mmdeploy/codebase/mmdet3d/models/centerpoint.py:129:0
  return (%54302, %53552, %53570)
